models/tmp/MAT/checkpoint1.pt (torch, 154456 bytes, 47 tensors)

model.gnn.gnn_layers.0.gat_conv.attn_l f4 [1, 8, 8]
00000000: 8d29 d03c 8f5b 3cbe 66d3 a3be 93d2 c53d
00000010: 955b 11be 932c 8b3d 3458 513c 9bfb d4bd
00000020: bae8 25be 7118 88bd 5a6e 4b3e 028a dbbd
00000030: a36c 523e 8c73 42bd 0944 e23a 88dc 633e
00000040: ea28 e33d 4cd1 1e3e 571e 1a3c 4cfa 5bbb
00000050: 80e0 033e 955f be3e aa30 e5bd 7a8a 16be
00000060: 3ad8 e6be f11e 82be 7ccf fcbe c299 a83d
00000070: 1102 b13e 27c9 9d3d 9743 2d3d 6210 8bbe
00000080: db22 8fbe 62da 7c3e 6e5e d7be e6a6 b63d
00000090: 97e8 1d3d 775e 9bbe cbfd 023f e3ab 7e3d
000000a0: 0420 cf3d 42e9 66be 6151 a6bd 3dcf 6fbe
000000b0: f2b6 2d3e 2bc9 aebe ca6b d13d aade 42bd
000000c0: 0e61 7dbb 143d afbe 5b7f d93c 23f7 803c
000000d0: 967f 3e3e db76 f5be ead4 623e 1e2f 88be
000000e0: c204 d7be ca8d f1bd 4711 3e3e a613 a53c
000000f0: 3b0d 243e 94d9 703e 1771 193e 53d5 893d
0.025410438 -0.18394302 -0.31997222 0.096593045 -0.14195092 0.06795611 0.012777377 -0.103995524
-0.1620206 -0.06645287 0.19866315 -0.10719682 0.20549254 -0.047473475 0.0017262708 0.22252095
0.11091788 0.15509528 0.009406648 -0.0033565937 0.12878609 0.37182298 -0.111909226 -0.14701262
-0.45086843 -0.2541423 -0.49377048 0.08232452 0.3457189 0.077043824 0.042300787 -0.27160937
-0.2795628 0.24692681 -0.42064232 0.08918552 0.038551893 -0.30345508 0.5116851 0.062175643
0.10113528 -0.22549918 -0.081209905 -0.23418899 0.1696432 -0.34137854 0.10225637 -0.04757563
-0.0038662585 -0.34226286 0.026549986 0.015742844 0.18603358 -0.47942242 0.22151533 -0.26598448
-0.41995817 -0.11794622 0.18561278 0.02015097 0.16020672 0.235205 0.14984547 0.067301415

model.gnn.gnn_layers.0.gat_conv.attn_r f4 [1, 8, 8]
00000000: b337 9ebd b10f 5e3e a176 ebbe 7bab 6cbe
00000010: 5655 993e 4355 283e 1833 803e 3550 2ebe
00000020: 9cdf 3d3e 1068 b73e 44ec 92bd aab1 d83e
00000030: b8ad 72be 9903 84bd 7090 6ebe 71b6 35bc
00000040: 70ba 05bd e373 d3be 72c5 5c3e 61be 45be
00000050: f90b 8b3e 6221 d53d f3cc a23d ccbc 5d3c
00000060: 24f9 593d a96a f3bd 9fed db3e 0f54 653e
00000070: 6e9b 5dbd 2fd8 993c 9544 653c 84d2 5ebd
00000080: 656d 6d3e a4a4 cebe 2e4d 9f3e 05d0 aebd
00000090: 80dd 98bd 13b1 18be 35b2 9b3d 581a babe
000000a0: e40e 8bbe 82c2 733d de4f 87be 9dac f0bd
000000b0: 2312 a7bd a95f 393d 3036 73be ee10 093f
000000c0: a280 9cbd ca9f b9bd f7ed d8bd c7d6 073d
000000d0: b536 1c3d af87 74bc 060c 913d b20c 8a3e
000000e0: 6e6e da3e 8ade d9bd e036 d6be 39ad 533e
000000f0: a1e0 873e a054 e0bd a6b5 5cbb d601 dfbe
-0.077254675 0.21685673 -0.45988944 -0.2311229 0.2994792 0.16438775 0.2503898 -0.17022784
0.18542331 0.3582158 -0.0717397 0.42323047 -0.23699081 -0.06445999 -0.23297286 -0.011090861
-0.032648504 -0.41299352 0.21559694 -0.19310905 0.27157572 0.10406758 0.07949247 0.013533782
0.053216115 -0.11885578 0.42954728 0.22395347 -0.054103307 0.018779842 0.013993402 -0.054399982
0.23186262 -0.40359986 0.3111357 -0.0853577 -0.07464123 -0.14911298 0.0760235 -0.36348224
-0.27159798 0.05951167 -0.2642812 -0.11751673 -0.08157756 0.045257244 -0.2375114 0.5354146
-0.07641722 -0.090636805 -0.10592263 0.033163812 0.03813811 -0.014924928 0.070823714 0.2696281
0.42662376 -0.10638149 -0.4183874 0.20671548 0.26538566 -0.10953641 -0.0033677607 -0.43556088

model.gnn.gnn_layers.0.gat_conv.bias f4 [64]
00000000: adc5 a0bb c1fd b1bb 1945 dabb 51b7 b139
00000010: 34be bc3b c87b d2bb 5b68 153b f482 c23b
00000020: 019d b33b 7626 e1bb cd86 eebb 0606 cfbb
00000030: 8d9f 193c 121e cebb eaac 863b b5f1 833b
00000040: e639 af3a 1dcf babb 9ee6 c9bb f98b d2bb
00000050: f126 e23b 358d efbb 567b 8a3b 047f e43b
00000060: 00af e23b 105a 87bb 312a e7bb eb4c 6dbb
00000070: b930 d63b 223a b3bb c503 e6bb a866 d63b
00000080: d3a3 85ba fda5 cc3b 6d5c 9b3b 7a04 0ebc
00000090: 6afa d93b 5592 b93b 37ef 86bb 107e c93b
000000a0: 78c3 e2bb 765b 203b 4789 d7bb 8a19 e4bb
000000b0: 4de5 2cbb 9c4c ccbb 0aae b53b b133 a83b
000000c0: bdce cbbb 67ff 15bb c055 b9bb 018f d6bb
000000d0: 3597 dc3b dcdd cabb 1d4a 06bc 7c22 d03b
000000e0: 384e dc3b 5ec5 f8b9 c6e4 d3bb e8ed cd3b
000000f0: 13e1 85bb d739 eabb 8bb1 e4bb ca88 3dbb
-0.0049063773 -0.005431861 -0.006661069 0.00033896652 0.0057599787 -0.0064234473 0.0022797796 0.005936021
0.005481363 -0.00687104 -0.007279253 -0.0063178567 0.009376419 -0.0062902058 0.0041099684 0.0040266165
0.0013368696 -0.0057009594 -0.006161525 -0.0064253774 0.006901615 -0.0073105344 0.0042261286 0.0069731493
0.0069178343 -0.0041306093 -0.00705459 -0.0036209177 0.00653657 -0.0054695765 -0.0070194923 0.0065429993
-0.0010195918 0.0062453733 0.0047412426 -0.0086680595 0.006652166 0.005663196 -0.004117872 0.006149061
-0.0069202743 0.0024468577 -0.006577644 -0.0069610523 -0.002638179 -0.0062347185 0.0055444287 0.005133115
-0.0062197135 -0.0022887827 -0.005655974 -0.006547809 0.0067318925 -0.0061909985 -0.008196381 0.006351767
0.0067231916 -0.00047449296 -0.006466481 0.006284464 -0.004085669 -0.0071480083 -0.0069791726 -0.0028920644

model.gnn.gnn_layers.0.gat_conv.fc.weight f4 [64, 30]
00000000: 7f7c 13be db1e 113e 0a60 5dbe de9f a03c
00000010: 027c c83d d535 5d3e a1f0 623d aa31 263d
00000020: 2cfb 35be 174b bd3e 0ba9 9cbd 2238 0bbe
00000030: 3816 803d 0b72 69be 1149 dbbc b2ef 133e
00000040: 617d a73e 426d 2c3c 624d c4be eca7 783e
00000050: 1f07 0fbe d129 793b 297f 793e 98b9 3b3d
00000060: 0931 d7bd f572 8a3e 8246 b8bb 9213 ca3d
00000070: 6bb4 ba3d 005d 9bbc 6ee7 ed3e a2e4 98bd
00000080: d6de 843d b995 863d a873 c9be 45a5 dd3e
00000090: 2150 97be 6729 9c3c b653 e03d 20f6 2a3d
000000a0: fb98 36bd eb28 99be 435f 223d e94c 86be
000000b0: 9476 e03e f953 35bc a32c d3be d04c 67be
000000c0: b977 883e a27d 053e 86e9 3b3e 74bd 9b3e
000000d0: 0ad3 863e 0d19 203e 9445 aebd 3619 493e
000000e0: 62f0 753e 3ba0 ea3d 93b9 983e be3f 6b3d
000000f0: 952e 6dbd 8578 313c 7e4b 4d3e 2ede 82be
00000100: 5f5d 01bd ecaf 64be 8d24 5bbe 19c9 a3bd
00000110: 4e07 143f 9ec8 a4bd 67b6 063e 676c 7dbd
00000120: 4194 c2bd 409a 8f3d c316 4cbe 07b8 88be
00000130: d966 a93e 0603 29be 9648 74be d35f d3bd
00000140: 0131 543e 73b2 bc3d 4a7a 443e b0ae 9d3d
00000150: d0d9 f6bd fba9 eb3e 5b9d 02be d3a3 793d
00000160: ea4e c43e 44d6 27be 1670 c43c d041 883d
00000170: fb4c 2d3e 0544 aebd 5ae1 2d3e 3607 8f3e
00000180: 130f 983e 22b7 5bbe d738 aa3d 5952 b13d
00000190: 006f 89be df5f a3bd 5cf6 e5bd 7028 1dbe
000001a0: 3e81 aebd 4222 803e 59fa 513d 658c 97bd
000001b0: 537b 203e c9a1 8abe 723c 98be 5b74 663e
000001c0: 346f a53d f3b8 6c3c d876 2abd ec76 d33e
000001d0: 6e0e 8abc 6673 8e3d 7523 493d 3460 8c3e
000001e0: c117 e8bd 66b1 483d 77ee 9f3e 5849 a83e
000001f0: 4a65 f8bd 4673 583e e64a fa3b 8670 a53e
00000200: 6044 13be 4aa2 423e 4e51 f43d 1733 ce3d
00000210: 569b 96be 6701 f6bc 2c14 a8bd 8ff4 86be
00000220: 1351 1abe 5685 bc3e 98c7 98be 9ca1 0dbd
00000230: 167f a6be b83d a2be 9188 35be 8f75 84bd
00000240: ea79 043d 2a9f 88bd 62fa 8fbe ebc0 9e3d
00000250: 2a3d b93e 38b2 78bc d053 be3c 5e9e c1be
00000260: e5b4 393e bb5a 88bc e626 953d 89d3 743d
00000270: c69f a3be eefe 4ebd 4e63 a93c c106 f23e
00000280: 6843 ddbe da88 13bd 4ee3 fd3c 2c51 17be
00000290: 9e8f 66be 10f9 c03d 746e f83d b8e3 7e3e
000002a0: 1adf 883e 7272 533d 6bfc 35be a056 03bd
000002b0: e4a4 203e 7bc1 1ebe ee6c 07be 1e17 a7bd
000002c0: fa97 cdbc 1d5e 28be 2fd7 8e3e 68e5 093d
000002d0: 1912 683e a8aa 47bc 2ed1 cd3d 486d 2bbc
000002e0: c513 943e 4e6f 94bd 3680 683e a286 0cbe
000002f0: c22a 04be 7d2a 3cbe 2dd5 283e 29c9 34bd
00000300: 6c6f fcbd 3670 723e 1b3d 92bd 1167 ebbd
00000310: d9c8 f43d aebb 23be 6d6b d7bd 0a16 633e
00000320: e757 2b3d da37 823d f455 593e cd5f 80be
00000330: c673 9abe bee0 3dbe 4a8d 843d 311b 643c
00000340: cf58 a53d c4f4 a53d 195f 803e ddd3 073e
00000350: cd1c 633e a164 efbd 92d4 2cbd 9cb4 3c3e
00000360: a6e7 4c3d 21f7 843d cc82 52bd 69f5 e43d
00000370: 44ba f23e 7d51 e4bd 4061 88be dac1 a2bd
00000380: 9244 613d 21fa aa3e c94d 8fbe fca7 f7bd
00000390: c928 8ebe 869f 163e ee32 4bbc 29f4 20be
000003a0: 0b6d cfbd e9c6 473e a1cf 8abd 9988 47be
000003b0: 6dec e23e 3aba 993d 924a e7bd c6aa b03d
000003c0: cd15 473e 14eb e03e b89a 01be ccaf 4f3e
000003d0: 1632 50bd d924 34be 7b06 c53d f409 12be
000003e0: b2d9 29bd 1315 acbe 049c d4bd 86e4 df3d
000003f0: 675e 453e aed0 08be cd51 a4bd 2bd4 abbd
-0.1440296 0.14171927 -0.21618667 0.01960748 0.097892776 0.21602567 0.055405263 0.040574707
-0.17771596 0.36971352 -0.0764943 -0.13595632 0.06254238 -0.2279741 -0.02676824 0.14446905
0.32712844 0.010524096 -0.38340288 0.24282807 -0.1396756 0.003801931 0.24364914 0.045831293
-0.105073996 0.2704083 -0.0056236396 0.09867014 0.09116443 -0.018965244 0.4646563 -0.07465483
0.06487815 0.06571526 -0.3934605 0.43290153 -0.2955332 0.01906271 0.109534666 0.04173863
-0.044579487 -0.2991403 0.03964163 -0.26230553 0.43840468 -0.011067384 -0.41244993 -0.22587895
0.2665384 0.13036206 0.18350801 0.3041798 0.26332885 0.15634556 -0.08509365 0.19638523
0.2401748 0.11456343 0.29829082 0.057433836 -0.057905752 0.010831957 0.20048329 -0.25560135
-0.031583186 -0.22332734 -0.21400662 -0.07997341 0.57823646 -0.08046077 0.13155518 -0.06187096
-0.095009334 0.07011843 -0.19930558 -0.26702902 0.3308628 -0.1650506 -0.23855814 -0.103210114
0.20721819 0.09213724 0.19187275 0.076993346 -0.12053263 0.46028122 -0.12755339 0.06094725
0.38341457 -0.1639033 0.023979228 0.06653178 0.16923897 -0.085090674 0.16980496 0.2793519
0.29699 -0.21456578 0.083116226 0.08658285 -0.268425 -0.0797727 -0.1122863 -0.15347457
-0.08520745 0.25026137 0.05126414 -0.07399825 0.15672044 -0.27076557 -0.29733616 0.22505324
0.08077851 0.014448392 -0.041617244 0.41301668 -0.016852584 0.06955604 0.04910608 0.27417147
-0.11332656 0.048997305 0.31236622 0.32868457 -0.12128694 0.21137723 0.007638323 0.3231241
-0.14381552 0.19007221 0.1192957 0.10068338 -0.29415387 -0.030029966 -0.082069725 -0.26358458
-0.1506999 0.36820477 -0.29839778 -0.03457795 -0.32518834 -0.31687713 -0.17727877 -0.06467735
0.03234283 -0.06670983 -0.28120714 0.0775164 0.36179477 -0.015179209 0.023233324 -0.37816137
0.18135412 -0.016644826 0.0728281 0.05977205 -0.31957835 -0.05053609 0.020677235 0.47270778
-0.4321549 -0.036019184 0.030992176 -0.14777058 -0.22515723 0.09422505 0.12130442 0.24891555
0.26732713 0.051622815 -0.17772071 -0.032065034 0.15687901 -0.15503494 -0.13225147 -0.08158706
-0.025096882 -0.16442151 0.27898547 0.033666044 0.22663154 -0.012186684 0.100496635 -0.010463066
0.28921333 -0.07247792 0.22705159 -0.13723233 -0.12906936 -0.18375583 0.1648757 -0.044137154
-0.123259395 0.23675618 -0.07140561 -0.11494268 0.11952371 -0.15989563 -0.10518537 0.22176376
0.041831877 0.06358309 0.21224195 -0.2507309 -0.30166453 -0.18542764 0.06472261 0.013922499
0.080735795 0.08103326 0.25072554 0.13264413 0.22178955 -0.11689115 -0.04219491 0.18428272
0.050025605 0.064924486 -0.05139427 0.11179621 0.47407734 -0.11148355 -0.26636696 -0.079471305
0.054997034 0.33393958 -0.27989033 -0.12092587 -0.27765492 0.14709291 -0.012402279 -0.1571814
-0.1012822 0.19509472 -0.06777883 -0.19485702 0.44321004 0.07506223 -0.1129352 0.086263224
0.1944191 0.4392935 -0.12656677 0.20281905 -0.050829016 -0.17592181 0.09620377 -0.1426161
-0.041467376 -0.33609828 -0.1038132 0.10932259 0.19274293 -0.13360855 -0.08023415 -0.08390077

model.gnn.gnn_layers.0.gat_conv.res_fc.weight f4 [64, 30]
00000000: 4b8e 20be 8c59 553e d0b6 c3be 3c0f b1be
00000010: 1d06 9b3d dbaa e83d 6c6c 6fbd 7ccd 963e
00000020: c795 8c3e ccb1 c1be 63d8 0e3f f949 003e
00000030: 7748 38be ed31 323d 96e7 613d 0d75 75bd
00000040: 635d a7bc 8e9e 083e 8593 75be 3cbc 2f3d
00000050: 1e0c 123e f1a5 2a3e 5eda 5d3d 04e1 b13d
00000060: 182b 4b3e e8d6 a3bd 7a63 08be b415 16be
00000070: 25e6 e9bd 3f74 9dbe d54c 4f3e 2da7 813d
00000080: 5d0a a2bb 9a12 87be f818 9cbe 0a34 b73c
00000090: bdca d23c a29a a1bd 9d54 0ebe fbea b6be
000000a0: a34a bc3d e8cf ce3e 14ff 91bd 710f b7bc
000000b0: bd47 debd 3091 e6bd 28c9 593e 0096 2e3e
000000c0: e536 4d3d 2adf 6dbd bec9 c23e c57a 2c3e
000000d0: fe18 1e3e b064 a73e 0662 123e ea57 c53c
000000e0: 66a3 e0be 3d10 e43c 7776 5f3d fb45 c4bd
000000f0: 29a5 f33d 4e2e a53d 150c 0b3d fdf1 e13d
00000100: 78bd 043d 9734 253e b093 273d 7da9 403e
00000110: 9147 17bd a85d 66be 5c80 023e 038e 55be
00000120: 7407 89bd 8f38 cfbe 3828 8ebe 18f2 86be
00000130: f9c7 35be 8f55 9f3e a9e7 13bd 3914 9d3d
00000140: a320 6bbd c822 abbe 6d69 5a3e 1e8a 4bbe
00000150: 31bf 2cbe 02eb 2fbd 37be 8ebe 3e1c 833e
00000160: 04d3 dcbe 88ef 5dbe 4ca8 cbbd c072 bb3c
00000170: d2f2 303d 696c 993e 9430 623d 653c ebbd
00000180: 63a0 d33d 1a31 6abd a37f 853e 1744 c7bd
00000190: 0b81 b13e 2ffe b8bd 508d 9b3e ce93 aabe
000001a0: 0da4 04be 6fc0 953d 7bdc f5bd e9f9 0f3d
000001b0: 9e7c 24be ee2c d53b b099 113e 0b07 b83d
000001c0: 6448 48be 23d1 0fbf 7d7a 803d 55c2 073e
000001d0: 9ecf d0bd dfac a9bb 7599 41be 89d4 a23d
000001e0: 24e0 f1bd 6420 b1bd 5555 a83e bb3b 703e
000001f0: 3293 7fbd 1d75 0abe 716b 8cbe 96a5 d8bd
00000200: 1fdf c8be df47 593e 454c 7bbe 11cd 96bd
00000210: 78c7 953d 48b3 703e 3b1b 98bd aa15 3c3e
00000220: 0632 083e c6ea 59be d370 d5bd 6c4d 72be
00000230: 68b5 a83d d8c5 00bd 1ba1 17be 8258 8cbd
00000240: 2559 233e 6612 d73e 6bdb 033e 580e 9f3d
00000250: 27a6 bdbe b666 293e 5c21 42bd fea4 78bd
00000260: 7e83 bebe 02ac 1e3e 1c60 983d 80dd c23c
00000270: a293 d63c 0ea9 6f3d 99bb f2bd c441 8dbd
00000280: ebb0 103e 2e8e 2e3e 93fe f63d 3df2 863e
00000290: ea48 7d3c c5e1 af3d 29b2 0e3d 04b7 09be
000002a0: 56b4 87bd d583 e4be 5969 303b e00a 2fbe
000002b0: 9516 933d b1fe 5dbe d47a 423e 92d2 7fbe
000002c0: 64f3 79bd 1ea0 bd3e 200d 8b3c 0cae 0b3e
000002d0: ee4a 0bbe 581d 8f3e 1cea 2d3e 14af db3d
000002e0: 9dbf 9f3d 09de 07bd ffb4 083d 5b1f d53e
000002f0: fcdd 62bd 97b1 f03d bc31 953e a744 5b3e
00000300: 1e27 0dbe 5838 1ebe fd85 4c3e f4a3 983d
00000310: 540a 27be 2bac 83be 1f32 0a3e e6a4 35bf
00000320: 35ce 45bc f076 e93d 404d 863d 31c5 a83d
00000330: 6e7a 98be 9602 f9bd 354b 453e 3c4d 27bf
00000340: 994c 21be 2438 47be 9678 6e3e bcc6 8e39
00000350: bd44 12bd e1ee 963d fbc5 ae3e 7af6 653e
00000360: 2030 943b 3271 c73d 0707 2fbe bd8e 33be
00000370: 3cc0 cabd c9ee 663c df04 a4be 7577 58be
00000380: 2954 6b3d ea10 9a3e 2cfc 00bd 8fdd 85be
00000390: 96a2 83be ffca 1c3e ba25 3bbe 33f6 073b
000003a0: 317c da3c a93b c03e 63f6 d23e 5453 933d
000003b0: a0d4 043e f260 483e c030 6e3e 8a85 38bc
000003c0: 2fdc 0a3e 4242 553e e5a8 e63e bfe6 dbbd
000003d0: f8f9 83bd 5888 03bc 3294 8c3d ed7b 9d3e
000003e0: 5f69 94be 540b 993d 12a9 80be 321f 5d3c
000003f0: 8bbb a3bc 354e 983d 6bfb 443d fa0c 73bc
-0.1567928 0.2083494 -0.38225412 -0.34581935 0.075695254 0.11360713 -0.05845301 0.29453647
0.2745802 -0.3783096 0.5579893 0.12528218 -0.17996393 0.043504644 0.0551525 -0.05992608
-0.020430272 0.13341734 -0.23982055 0.042904124 0.14262435 0.16664864 0.05416333 0.086854964
0.19840658 -0.079999745 -0.13319197 -0.14656717 -0.1142085 -0.3075275 0.20244153 0.063307144
-0.004945083 -0.2638138 -0.304878 0.022363681 0.025731439 -0.07890822 -0.13899465 -0.3572615
0.09193923 0.40392995 -0.071287304 -0.02234623 -0.10853527 -0.11258161 0.21268141 0.17049408
0.05010118 -0.058074154 0.38044542 0.16843708 0.15439221 0.32694006 0.14295205 0.024089772
-0.43874663 0.027839774 0.054556336 -0.0958366 0.11896736 0.080654725 0.03394707 0.11032484
0.032407254 0.16133343 0.04091233 0.18814655 -0.036933485 -0.22496665 0.12744278 -0.20854954
-0.06690875 -0.40472838 -0.2776506 -0.26356578 -0.17752065 0.31119964 -0.0361096 0.07669873
-0.05740417 -0.33424973 0.21329279 -0.19876906 -0.16869809 -0.04294873 -0.27879497 0.25607485
-0.43129742 -0.21673405 -0.099442095 0.022881866 0.04320032 0.29965523 0.05522211 -0.11486129
0.10333326 -0.057175733 0.26073942 -0.09729784 0.34668764 -0.09032857 0.3038125 -0.3331589
-0.12953205 0.073120944 -0.12004944 0.035150442 -0.16063163 0.0065056 0.14218783 0.08985718
-0.19558865 -0.5617849 0.06273363 0.13257726 -0.1019585 -0.0051780785 -0.18906195 0.07950694
-0.118103296 -0.08648756 0.32877603 0.23460285 -0.062396236 -0.13521238 -0.2742572 -0.10578458
-0.39232728 0.21218823 -0.24540813 -0.07363332 0.07313436 0.2350589 -0.07427069 0.18367639
0.13300332 -0.21280965 -0.1042191 -0.23662347 0.082377255 -0.03143868 -0.1480755 -0.06852819
0.15951975 0.42006224 0.1287667 0.07766408 -0.37040827 0.16543087 -0.047395095 -0.060704224
-0.37209696 0.15495303 0.074402064 0.02378726 0.026193444 0.058510832 -0.11852188 -0.068973094
0.14129989 0.17046425 0.12060275 0.26356688 0.015459279 0.08587984 0.034837876 -0.13448721
-0.06626193 -0.4463183 0.002691826 -0.17093992 0.071820416 -0.21679188 0.18992168 -0.2498267
-0.06102313 0.37036222 0.016974032 0.13640612 -0.13602802 0.27952075 0.16983837 0.10726753
0.07800219 -0.033170734 0.033375736 0.41625485 -0.055387482 0.117526226 0.29139507 0.21412908
-0.13784453 -0.15451181 0.19972987 0.074531466 -0.16312534 -0.2571729 0.13495682 -0.7095474
-0.012073089 0.11399639 0.06557703 0.08240736 -0.29780906 -0.12158696 0.1926697 -0.65352225
-0.15751876 -0.1945501 0.23288187 0.0002723242 -0.035710085 0.07369781 0.34135422 0.22457305
0.0045223385 0.09738387 -0.17092524 -0.17534919 -0.09899947 0.014095017 -0.32034966 -0.21139319
0.05745331 0.3009103 -0.03149049 -0.26145598 -0.2570998 0.15311812 -0.1827611 0.0020746111
0.026670547 0.37545517 0.41203603 0.07193628 0.12971735 0.19568232 0.23260784 -0.011262307
0.13560556 0.20826057 0.4505073 -0.10737371 -0.06444162 -0.008028112 0.068642035 0.3075861
-0.28986642 0.07472864 -0.2512899 0.013496207 -0.019986888 0.07436792 0.048091333 -0.014834637

model.gnn.gnn_layers.1.gat_conv.attn_l f4 [1, 8, 8]
00000000: 571d 1fbe 0cf6 8bbd c153 433e aa46 173e
00000010: e402 a9bd fb51 01bd a0bd ae3e 1895 503d
00000020: 10a7 a5bd 740a c1bd b961 f63d ee40 983e
00000030: db32 84bd f02f cebe 25dd 69bd fcc7 923d
00000040: 4926 d53d 8412 573d 4670 8ebe 0c75 143e
00000050: 586e 37be 44f1 edbe e443 4abc d197 a63d
00000060: 2373 f23d 026e 5dbe 4370 29be 950c 97be
00000070: 3f7a b5be d260 fe3c 61cd 6bbe d814 bf3d
00000080: 927c 453e 3280 98be d941 903d 6470 943d
00000090: 73f0 933d e718 d23e cb6b 653e 2f44 1bbe
000000a0: fc7b 4e3c 432a 06bd b115 14bf 64fe 3e3e
000000b0: bdaa e03e 3bac 34be 1c51 d83e 8f6c bb3c
000000c0: b7de 333e 33bb 7bbe 814c 473d 3bb2 c33d
000000d0: 9de9 7fb9 04a2 b8bd 9cba 48bd a843 923e
000000e0: 715c a83e 5f8d 2b3e 0c5f 36be 7ff5 cabe
000000f0: c913 573d f985 4f3d d1a3 cfbd f455 8d3d
-0.15538536 -0.06834039 0.19074918 0.1477305 -0.082525045 -0.031572323 0.34129047 0.050923437
-0.08088505 -0.09425822 0.12030358 0.29737037 -0.064550124 -0.40270948 -0.057095665 0.0716705
0.10407693 0.052507892 -0.27820033 0.14497775 -0.17913187 -0.46473134 -0.012345288 0.081344254
0.11838367 -0.21623996 -0.1654673 -0.29501787 -0.3544483 0.031052027 -0.23027565 0.093301475
0.19285801 -0.29785305 0.070438094 0.07247999 0.072235964 0.41034624 0.22404401 -0.15162729
0.012602802 -0.032755148 -0.578456 0.1865173 0.43880263 -0.17643826 0.42249382 0.022878913
0.17565428 -0.2458313 0.048656944 0.09555479 -0.00024405723 -0.09015277 -0.04900609 0.28567243
0.32883027 0.16753148 -0.17809695 -0.39640424 0.052509103 0.050664876 -0.101386674 0.0690116

model.gnn.gnn_layers.1.gat_conv.attn_r f4 [1, 8, 8]
00000000: b6be 6bbe b5a4 edbe b0b2 0c3f fa0a 133d
00000010: 3cc4 2bbe e4c0 2e3e 1bd3 ecbe 6597 923c
00000020: bd1d e73e db04 1bbe f870 4c3e 5211 af3e
00000030: 2204 84be cc0e 313e 44d2 943e f721 623e
00000040: fe97 fbbd d996 a03c bb9d 78be f47c 1fbf
00000050: 5a9d 663e 7074 7c3e 335a c0bd f785 c6bd
00000060: c079 bdbe cb8f 08be fb93 20be 01d1 fd3e
00000070: 07e7 25be 0837 69be 1e07 213e 2b2b 5abe
00000080: 18e8 0cbe 55cd ae3e 1b42 0d3e bedc 73be
00000090: f368 3f3e 6fcd 71be 0a6b 98be 385a fb3d
000000a0: 726a 76bc 6e82 4f3b 8b97 9abe 092e 843e
000000b0: f5d9 46bd e61f f7bd 28ed 833d 0943 073f
000000c0: 9ced c43d f27d 103a 13ae 47be 2c38 303e
000000d0: a449 063d fcb5 8f3e 47d0 afbe 7e98 b23d
000000e0: 86ca 81bd eb5b f2bc aa4d 553e ea33 a13d
000000f0: f552 60be ed4e 4e3d 1a67 91bc 3c20 9abe
-0.23021969 -0.46414724 0.54960155 0.03589914 -0.16774076 0.1706577 -0.4625481 0.017894456
0.45139876 -0.15138571 0.19964969 0.34192902 -0.25784403 0.17290801 0.2906667 0.22083269
-0.122848496 0.01960318 -0.2427892 -0.6230004 0.22520962 0.24653792 -0.09392204 -0.096935205
-0.3700695 -0.13336103 -0.1568145 0.4957352 -0.16201411 -0.22774899 0.15725371 -0.2130553
-0.13760412 0.3414103 0.13794748 -0.23814675 0.18692379 -0.23613523 -0.29769164 0.12273067
-0.015040027 0.0031663436 -0.30193743 0.25816372 -0.048547704 -0.12066631 0.06441718 0.5283666
0.09615633 0.00055119314 -0.19499998 0.17208928 0.032785073 0.2806853 -0.3433859 0.08720492
-0.063374564 -0.029584846 0.20830408 0.0787123 -0.21906646 0.05036824 -0.017749358 -0.30102718

model.gnn.gnn_layers.1.gat_conv.bias f4 [64]
00000000: 325b 093b 9763 b73b 6a93 dabb 9287 a6bb
00000010: 2608 d83b acd9 c9bb fa53 02bc 7603 b13b
00000020: 325b 093b 9763 b73b 6a93 dabb 9287 a6bb
00000030: 2608 d83b acd9 c9bb fa53 02bc 7603 b13b
00000040: 325b 093b 9763 b73b 6a93 dabb 9287 a6bb
00000050: 2608 d83b acd9 c9bb fa53 02bc 7603 b13b
00000060: 325b 093b 9763 b73b 6a93 dabb 9287 a6bb
00000070: 2608 d83b acd9 c9bb fa53 02bc 7603 b13b
00000080: 325b 093b 9763 b73b 6a93 dabb 9287 a6bb
00000090: 2608 d83b acd9 c9bb fa53 02bc 7603 b13b
000000a0: 325b 093b 9763 b73b 6a93 dabb 9287 a6bb
000000b0: 2608 d83b acd9 c9bb fa53 02bc 7603 b13b
000000c0: 325b 093b 9763 b73b 6a93 dabb 9287 a6bb
000000d0: 2608 d83b acd9 c9bb fa53 02bc 7603 b13b
000000e0: 325b 093b 9763 b73b 6a93 dabb 9287 a6bb
000000f0: 2608 d83b acd9 c9bb fa53 02bc 7603 b13b
0.0020958898 0.005596589 -0.006670405 -0.005082079 0.0065927682 -0.0061599817 -0.007954592 0.005402024
0.0020958898 0.005596589 -0.006670405 -0.005082079 0.0065927682 -0.0061599817 -0.007954592 0.005402024
0.0020958898 0.005596589 -0.006670405 -0.005082079 0.0065927682 -0.0061599817 -0.007954592 0.005402024
0.0020958898 0.005596589 -0.006670405 -0.005082079 0.0065927682 -0.0061599817 -0.007954592 0.005402024
0.0020958898 0.005596589 -0.006670405 -0.005082079 0.0065927682 -0.0061599817 -0.007954592 0.005402024
0.0020958898 0.005596589 -0.006670405 -0.005082079 0.0065927682 -0.0061599817 -0.007954592 0.005402024
0.0020958898 0.005596589 -0.006670405 -0.005082079 0.0065927682 -0.0061599817 -0.007954592 0.005402024
0.0020958898 0.005596589 -0.006670405 -0.005082079 0.0065927682 -0.0061599817 -0.007954592 0.005402024

model.gnn.gnn_layers.1.gat_conv.fc.weight f4 [64, 64]
00000000: 7bc1 94be 130e 0f3e 8e17 853c 07bd f63d
00000010: 3532 babe 0593 8c3d 9ee5 313e 6339 0e3e
00000020: 12e9 1ebd dbb4 093c 839c 0e3e 1b48 d33e
00000030: a1cf 8f3d b66e 7dbd c771 55bd e42b 1abd
00000040: 094f 9f3e 885f c43d d37c 523d bbc9 8ebe
00000050: 6761 333e 4be0 6dbc da0f e63c 431d 083d
00000060: fab1 33be 2d50 243e 2725 8fbe 456d 10bd
00000070: b10f 81be e57f 38be e10c 10be 5aaf 473e
00000080: 308a fdba 496e 673e 20be b0be 1cc9 68bc
00000090: 089e 8b3e 6ce0 5c3e 39c1 783e 1f03 07bd
000000a0: cfd3 78bd b37c 9d3b 35e8 453e 7355 153e
000000b0: 841a b0bd 84c1 2fbe 5f1a 15be bea5 df3d
000000c0: 0ed6 823e e66b 6ebc d838 bcbd 8499 49bd
000000d0: fba2 c4bd 112a 983d 51df 3c3c 0f80 8b3d
000000e0: 822e f1bd 7f8a 54be 38b8 1a3e a3c7 923d
000000f0: 5cef 3cbd 926d c9bd 409f 053e 1d2e e03b
00000100: 3aa9 9abd 8277 a53e 4fe4 2b39 28bb 6dbd
00000110: 75af 463e 4bfe d23d a66e fd3d 7cc4 5fbe
00000120: 03d4 62be e56f 513e 57f6 eabd cbcf 173e
00000130: 2bd8 733c a9f3 083e bfd9 ed3d 4ee0 b3bd
00000140: 2c21 84be 9c04 03be f1a7 adbc 4893 d4bb
00000150: d022 1dbe 683f 10be b4f7 adbc acdf 87bb
00000160: a1e2 b53d 6ac9 adbd 8e4a d4bc f8ef 4f3e
00000170: a5b6 593e d52c 293d f0cb dfbd 4639 933e
00000180: ac45 43be e20f 0e3e 8093 ba3d 7c12 aa3d
00000190: 7c16 4c3d ab1c 973e f3d1 b1be 6694 7d3e
000001a0: 901f 2dbe 1151 c93e 1610 ca3e b961 3bbe
000001b0: 94ac 8fbd 4674 e5bd ded9 d0bd e248 463e
000001c0: 77a4 85be 4703 1bbb e34a 043e 2ee7 53be
000001d0: a6ca 083f 2a42 293e 462c 713d b3dd 72be
000001e0: 0954 16be 2d93 20be dd07 1f3e 5444 1b3e
000001f0: be9d b7bd a287 47be 31d6 c4bd 2aa8 873d
00000200: 7b49 11be 14bc e03d 28c6 17be 4490 863e
00000210: f14a 893d b0ea 1d3e ad58 9a3d 25da 7fbd
00000220: 33fa 9ebe e88e b13d 9ea3 c6bd cf69 ccbd
00000230: eb3d 553d bc49 b93e 9873 17be 48ad 2fbe
00000240: 5338 4e3d cdd7 d83c bb16 0f3e a031 483e
00000250: 3e3c 91bd 3fa0 4f3d eab8 403e 4249 c4bd
00000260: be1a 3fbe 739a 543d 2ac7 cbbe 1fbc cfbb
00000270: 3ce1 c03c 0cd1 713e 2f2a 843e 97b1 103e
00000280: 9f3a 0a3e b34f 02be 2584 543e d0d2 863d
00000290: 2a35 c3bd 758e 20bd 646c c6bd 82a6 203e
000002a0: 3eb9 48be 62b0 943e 7830 1b3e 06d4 bb3d
000002b0: e703 6a3e 6b1d 3c3d 0bc8 4b3e 5f4c 0bbd
000002c0: 0ce3 3fbe 83fd 16be 2547 e23e 7b98 40be
000002d0: 9ce0 2bbe 3ae3 933d 8352 5dbe 3b0c 383e
000002e0: 17f8 bbbe 4df4 b23d 492e 513e c8f8 073e
000002f0: 38e7 8fbd d1d6 193e 6eaf 933c 98e0 963c
00000300: 6668 a03b 12d0 a03d ec1f d73e b288 293e
00000310: ffb4 5abe df39 5e3d 8aea bf3e da9c 49be
00000320: e5c6 48bd 1b79 2b3e 92ac 363d 58a2 bdbd
00000330: e484 3b39 f322 843e ef2d febd 31c2 63bc
00000340: 10ab e0bd e6e2 c1bc 0979 3f3e a943 ac3d
00000350: 1054 abbd 1f05 b1bc cf6f 08bc 4bc0 2fbc
00000360: 1d2b f53c 3214 003e 637c 2bbc 69f2 34be
00000370: 5c65 683e 4bb7 193e b1b1 a6bd a7b1 24be
00000380: a80d 003e c3a9 64be 0cbd bdbc 2fdb ca3e
00000390: 5e8c b4bd 9246 123e a1d3 83be 37e3 853d
000003a0: c02a e43d 1f64 1cbe fe7b 563e f2c4 53be
000003b0: d9d4 cdbe c575 b93d a5e5 5d3e a8aa 453e
000003c0: d70e b1bb 9888 35bd d3b6 d1bd 5868 8fbe
000003d0: 0ca9 9a3e 645b 62be 4bdc 82bd 982c 8b3e
000003e0: e017 0e3e 9f7b d9be c407 7c3e 7376 9fbd
000003f0: f870 e93d 9ad1 8abd 8610 ff3d 6f20 153d
-0.29053864 0.13970213 0.016246583 0.12047773 -0.3636643 0.06863979 0.17372748 0.13889079
-0.038796492 0.008404936 0.13926892 0.4126595 0.07022024 -0.06187316 -0.05211046 -0.037639514
0.31114987 0.09588534 0.051388573 -0.27888283 0.17517625 -0.014518808 0.02808373 0.03323103
-0.17548361 0.1604621 -0.27958032 -0.035260458 -0.25207284 -0.18017538 -0.14067413 0.19500485
-0.0019343551 0.22600664 -0.34520054 -0.014208104 0.27269006 0.21569985 0.24292459 -0.03296196
-0.06074887 0.004806125 0.19326861 0.14583378 -0.085988075 -0.17163664 -0.14560841 0.10920285
0.25553936 -0.014552092 -0.091905296 -0.04921867 -0.096013986 0.074298985 0.011527852 0.068115346
-0.11776449 -0.20755957 0.15109336 0.07166984 -0.04612671 -0.09835352 0.1304903 0.0068414346
-0.07551809 0.3231774 0.00016392882 -0.058039814 0.19402869 0.10302409 0.1237462 -0.21852297
-0.22151189 0.2045284 -0.11472767 0.1482536 0.014883081 0.13374199 0.116137974 -0.08783017
-0.25806558 -0.12794727 -0.021198245 -0.006487284 -0.15345311 -0.14086688 -0.021236278 -0.004146537
0.08881117 -0.08485682 -0.025914457 0.20306385 0.2126108 0.04130252 -0.1092757 0.28754634
-0.19069546 0.13873246 0.09110165 0.08304307 0.04982613 0.2951406 -0.3473049 0.24763641
-0.16906571 0.3931966 0.39465398 -0.18298997 -0.070153385 -0.11203818 -0.10197805 0.1936374
-0.2610204 -0.0023653076 0.12919192 -0.20693657 0.53434217 0.16529146 0.058880113 -0.23717384
-0.14680494 -0.15681143 0.15530343 0.15162784 -0.08965634 -0.19485334 -0.09611166 0.066238716
-0.14188187 0.10973373 -0.14821684 0.2628194 0.06703747 0.15421557 0.07536445 -0.0624639
-0.31050262 0.08669835 -0.09699176 -0.09981119 0.052061003 0.36189067 -0.1479019 -0.17155945
0.050346684 0.02647009 0.13973515 0.1955018 -0.070915684 0.050689932 0.18820539 -0.09584285
-0.18662545 0.051905107 -0.39800388 -0.0063395645 0.0235449 0.23614901 0.25813434 0.14130245
0.13498925 -0.12725715 0.20753534 0.06583178 -0.095316246 -0.039198358 -0.096886426 0.15688518
-0.19601914 0.2904082 0.15155208 0.091713 0.22853051 0.045926493 0.19900529 -0.03400838
-0.18738955 -0.14745145 0.44194904 -0.18808167 -0.167849 0.072210744 -0.21613507 0.17973416
-0.36712715 0.08738003 0.20427813 0.13278496 -0.07026523 0.15023352 0.018027987 0.018417642
0.0048952578 0.07852186 0.42016542 0.16556051 -0.21358107 0.05425441 0.37483627 -0.1968874
-0.049017806 0.16745417 0.04459817 -0.0925948 0.00017883215 0.25807914 -0.12411105 -0.013901279
-0.109701276 -0.023667764 0.18698515 0.08411343 -0.08365643 -0.021608887 -0.0083274385 -0.010726999
0.029927785 0.12507704 -0.010466668 -0.17670597 0.22694916 0.15011327 -0.08139361 -0.16083394
0.1250521 -0.22330384 -0.023161434 0.3962035 -0.088158354 0.14284733 -0.25747398 0.065374784
0.111409664 -0.15272568 0.20945737 -0.20680597 -0.40201452 0.09055666 0.21669634 0.19303381
-0.0054033804 -0.04431972 -0.10239949 -0.28009295 0.30207098 -0.22105175 -0.06389674 0.2718246
0.13876295 -0.42477128 0.24612337 -0.07786264 0.113985 -0.067782596 0.124543235 0.036407884

model.readout.weight_and_sum.atom_weighting.0.weight f4 [1, 8]
00000000: 4b00 3cbe 7475 8fbe 53ea 4cbd 13ab 543e
00000010: 3b51 b2be 9221 a63d ad69 cf3d 3076 a5bd
-0.18359487 -0.28019297 -0.050028156 0.20768385 -0.348276 0.08111872 0.10127578 -0.08079183

model.predict.predict.1.weight f4 [128, 16]
00000000: 23cf d839 12b0 3a3e c6c7 1f3e 19b5 97bd
00000010: 7b6e e63d 9b2b 173e d870 16be df41 e6bd
00000020: f916 aebd 030b 203d 2391 83bd a33d 5abe
00000030: 71dd 483e 253a 7abb d1ae 98bc 9ba0 6a3e
00000040: 969e 27be 2e36 30be 443a 36be c635 38be
00000050: fcc1 6cbe f414 333e 88f7 c23d 0031 f23c
00000060: 6671 533e a43a d83d 848d 95bd f61e 7bbe
00000070: 88a6 633d c09e f6bb 28e9 40bd f0cc afbd
00000080: fc9b 31be bb41 81bb 9126 86bc ea18 103e
00000090: 331a 623e 51f1 0cbe 2cc2 0cbe 4185 3a3e
000000a0: d4b9 743e 1c26 303d 32be 7cbd 6f16 dd3d
000000b0: 2e7f 6bbd 88d1 fcbc 36fa 1bbe d094 53be
000000c0: 3344 623e 13b4 dbbd c2d2 babd f49d 74be
000000d0: 1af2 f2bd 1283 30bc 390e 6f3e 3f25 babd
000000e0: 12c7 f43d b511 09be 2011 19bd 23f0 b2bd
000000f0: 1032 773e a900 b83d dfcd c0bc 8af8 3b3e
00000100: cff0 713e 8d4f 3d3e adb8 383e fd34 9d3d
00000110: 7f92 823e 4e6b 4abe 451b 993d 343e 32be
00000120: a55b f1bc a5ac b53c 45b1 ce3d 8092 5f3e
00000130: 0766 f8bd d143 6bbe 544e a1bd 6345 eb3d
00000140: fdef 2cbe 400e ee3d 9ce6 dcbc cb16 583b
00000150: 44b5 563e ab8f c63d a85f 0abe ddba 20be
00000160: 6880 20be 0f86 63be b4f7 ebbd db40 87bd
00000170: c82a 3d3e 5b69 a53d 4e98 8bbc f719 e13d
00000180: 5565 66be ab65 603e 29be 55be a210 9fbd
00000190: 61f5 033e 5e1c 08bd ca22 77be a5c3 443e
000001a0: 8a06 783e b7cb 3f3e f77a 0bbe 0bd5 32be
000001b0: 70a7 43be 738c c53c 8c88 36bd ddf2 eebd
000001c0: 3b74 23bd 78ca 273e fe8e 16be 5690 19bd
000001d0: ee1f 4d3e fa6d 083e f3e9 243e 14b4 22be
000001e0: c965 7c3e 7eea 5ebe 3d51 053e 5060 3fbe
000001f0: 94c0 7b3d 61ff 4a3e 5736 0ebd bd2c 4bbe
00000200: 5250 b4bd 4e5a 1ebe 1ac0 243d 3d30 88bd
00000210: c0fe 6d3e b4f0 f9bb 9d68 01bd 9c15 8cbd
00000220: cc53 333e 8a9c 643e 7109 21be 7b5a 333e
00000230: 79b9 bcbd 73c9 a53d a477 45be 4f11 05bc
00000240: b092 293e 21c2 683e c58d 503e 31c6 633d
00000250: d8d4 31be 5949 47be 92f3 483e 4964 38be
00000260: 4b93 ebbd 5b04 2abe d243 5cbe f72f 48be
00000270: 6f5c 043e 1a39 fabd cf68 3f3d 6005 70be
00000280: 1923 7a3e d240 bebd 3e66 0c3e 9a58 46be
00000290: be45 d03d c3ac 483e 27d8 5c3e b5a2 7b3d
000002a0: c7a5 f5bb c08d a13d cecb 343e 46fd fe3d
000002b0: 9a8b 02be 0048 1dbe 35c1 653e 2afe bf3d
000002c0: 9d46 393e aee2 233d 11c0 25bd 7900 423d
000002d0: 5f92 773e 8c4a 903d 0807 66bb 33e3 6c3e
000002e0: 1c04 343e d9ff 0e3e eff4 cfbc ef24 1abb
000002f0: 6e91 a5bd cf4a d53d ae3e a73c da29 18be
00000300: 24fc d6bd 3886 56be 6ca2 91bd 407d 093d
00000310: 84f4 47be 30ce 0c3e 400a 213e de5c 413e
00000320: 98ea 173e 9efc 5a3e cec0 19be cce5 4ebe
00000330: 4836 48be 007a 8dbb c81f 7bbd 46df 0b3e
00000340: e94f 70be d97d 803d 23c7 0ebe b949 a5bc
00000350: ed92 f9bd 11ce 34bd 1639 903d 1061 c83d
00000360: 8143 5abc f912 253e e5ce b8bc 92d1 73be
00000370: c613 7ebd 9e88 79be 4054 bd3d d320 60be
00000380: 0693 17bd 8e18 2c3e d9a3 4d3e 4f42 7a3e
00000390: 665c 693e 9ca2 543e 9054 3fbc e7f5 82be
000003a0: 4ae3 293e 5193 333e 33a0 453b e04f 683e
000003b0: 8479 abbd 0f42 123d 5869 ecbd 619f 143e
000003c0: c2d8 b4bd 64bd 5c3e 4fb4 123e d126 6cbe
000003d0: 0c42 4f3e ae00 c4bc 490e 7a3e 3ba6 38be
000003e0: bcd2 e2bd 9ce4 e3bc 4fee 5a3d 56b9 1cbe
000003f0: a899 b03c f815 323c 6ef0 1cbe 6274 1e3e
0.0004135306 0.18231228 0.15603551 -0.074075885 0.11251541 0.14762728 -0.14691484 -0.11243033
-0.085004754 0.039073 -0.06424167 -0.21312575 0.19615723 -0.003818163 -0.018638046 0.22912829
-0.1636909 -0.17208168 -0.17795664 -0.17989263 -0.23120874 0.17488462 0.09519869 0.02956438
0.20648727 0.1055806 -0.073023826 -0.2452353 0.05557874 -0.0075262487 -0.047097355 -0.085840106
-0.1734466 -0.0039446033 -0.016375812 0.14072004 0.22080307 -0.1376393 -0.13745946 0.18214895
0.23899013 0.043005094 -0.061704822 0.107952945 -0.057494335 -0.030861631 -0.15232167 -0.20662236
0.22096328 -0.10727706 -0.0912223 -0.2388838 -0.118625835 -0.010773437 0.2334527 -0.090891354
0.11952032 -0.13385661 -0.037369847 -0.08737209 0.24140191 0.08984501 -0.023535667 0.18356529
0.23627017 0.18487377 0.18039198 0.07676122 0.25502393 -0.19767496 0.074759044 -0.17406541
-0.029462645 0.02217705 0.10092405 0.21833229 -0.12128835 -0.22975089 -0.07876268 0.11487844
-0.16888423 0.11623812 -0.026965432 0.003297257 0.20967585 0.09695371 -0.13513052 -0.15696283
-0.15673983 -0.22219108 -0.11521855 -0.06604167 0.18473351 0.080767356 -0.017040398 0.109912805
-0.22499593 0.21913783 -0.20873322 -0.07766844 0.12886573 -0.033230178 -0.24134365 0.19215257
0.24221244 0.18730055 -0.13621126 -0.17464082 -0.19106841 0.024114823 -0.044563815 -0.11667416
-0.039905768 0.1638583 -0.14702985 -0.037491165 0.20031711 0.13323203 0.1610487 -0.15889007
0.24648203 -0.21769139 0.13019271 -0.18689084 0.061462954 0.19823982 -0.03471979 -0.19841285
-0.088043824 -0.15464136 0.040222265 -0.06649826 0.2324171 -0.007627571 -0.031593908 -0.06840059
0.17512435 0.2232534 -0.15726258 0.17514984 -0.092150636 0.08095064 -0.1928392 -0.0081218025
0.16559863 0.22730304 0.20366581 0.055608932 -0.1736635 -0.19461574 0.19624165 -0.18007006
-0.11502703 -0.16603224 -0.21510246 -0.19549547 0.12925886 -0.122179225 0.046730813 -0.2343955
0.24427451 -0.09289707 0.13710877 -0.19369736 0.10169552 0.19597153 0.2156683 0.061434466
-0.007496569 0.07888365 0.1765587 0.12450652 -0.12748566 -0.15359497 0.22436984 0.0937465
0.18093343 0.0400111 -0.040466372 0.047363732 0.2417693 0.07045469 -0.0035099406 0.23133545
0.17579693 0.13964786 -0.025385348 -0.002352055 -0.08084379 0.10414659 0.02041563 -0.14859715
-0.10497311 -0.20949638 -0.07111058 0.033566713 -0.19526869 0.1375053 0.15726566 0.18883082
0.14835584 0.21385428 -0.15014955 -0.20204848 -0.19551957 -0.004317522 -0.061309606 0.13659391
-0.23467983 0.062740035 -0.13943152 -0.020176755 -0.12186227 -0.044141833 0.07042138 0.09784138
-0.013321758 0.16120519 -0.022559593 -0.23810413 -0.062030576 -0.24368522 0.09244585 -0.21887521
-0.037005447 0.16806242 0.20082034 0.24439357 0.22789153 0.20765156 -0.011677876 -0.25578234
0.1659061 0.17536665 0.00301553 0.2268672 -0.08372787 0.03570753 -0.1154353 0.14513923
-0.08830406 0.21556622 0.14326595 -0.23061682 0.20240039 -0.023926105 0.24419512 -0.18032162
-0.11075351 -0.02781897 0.053449925 -0.15305075 0.021557644 0.010869496 -0.15326092 0.15474084

model.predict.predict.1.bias f4 [128]
00000000: 3e72 4fbe 4853 70be d0dc 263e 0be8 6e3e
00000010: 92ea 5a3e 2b50 2ebe bedf 0ebe da64 f8bd
00000020: 6d51 0f3e b242 7bbe d7f4 203d 9668 9b3d
00000030: c4c7 553e 5ca8 03bd ae67 9a3d 069e e3bc
00000040: a8cf d2bb b459 25be 3010 be3c d27e 05be
00000050: 6ffa 473e 80aa 28be 18e7 13bd 351b 00be
00000060: 8e80 173e b126 fa3c 53f1 61be 95f6 203d
00000070: 0156 5ebe 443f a4bd 98c4 46be 829f b4bc
00000080: c3d0 a3bd 70ee 69be 8988 473e 20bf aa3c
00000090: 4346 563e 484f 1a3e 3e51 b43d 9d9d 013d
000000a0: 1173 173e 718f 2dbe b19b a93c d8d5 e13d
000000b0: 8ce9 243e fec0 d8bd b25a bcbd 81ca a9bd
000000c0: 6d9b 2fbe b218 c6bc 5867 46be 92e5 60be
000000d0: a1f8 8f3d e843 6bbe 7bd1 bd3d 2edc d0bd
000000e0: ad7d 123e e803 22be b7b0 193e 1830 653e
000000f0: 44b9 393e 68ad 50be 5ee6 76be a25f 57be
00000100: d654 01be f2c9 5d3e 275a 2abe 12d7 50be
00000110: c570 2d3e 6cbc adbd 5954 2abe 31bb 463e
00000120: 9fbf 60be d5d0 9ebc 93a6 493e c10b 3d3c
00000130: f759 34be 448b 833e 65dc 2abe 4bad 8cbd
00000140: 1e53 45bd df74 95bd ad6c 063e ae74 103e
00000150: c70e f0bd 5f5a 573e 7405 9dbd a472 0a3d
00000160: 7073 acbc 5a6e 3d3e be97 473e accf fabd
00000170: 1060 8dbd 9033 37be 6dc9 04be 2252 4fbe
00000180: f920 343e 8d82 173e 3e58 00be 18be 47be
00000190: cc66 f43d d65d 9e3c e793 c9bd 06c8 83bd
000001a0: 6741 5dbd a8ce 263e 222e a03c 2f40 7a3e
000001b0: c71c d13d 21cb c73c 3624 6cbd 2ef2 4abe
000001c0: a499 6ebe 2671 72be ebb6 46be c4c2 54be
000001d0: 6452 40bd 55b1 683e 1c6f 493e 98be 033d
000001e0: 04b6 09be ee52 6f3e fc3f 62be 58bb 813d
000001f0: c48a d23d 3df2 0b3e 5d3a 833e a88b 193e
-0.20258424 -0.2346927 0.16295171 0.23330705 0.21378544 -0.17022769 -0.13952538 -0.12128611
0.13995905 -0.24537161 0.039295997 0.075883076 0.20876986 -0.032142982 0.075393066 -0.027785312
-0.006433446 -0.161475 0.023201078 -0.1303666 0.19529127 -0.1647129 -0.03610906 -0.12510379
0.14795133 0.030536028 -0.22064714 0.03929766 -0.21712495 -0.080198795 -0.19410932 -0.022048716
-0.079988025 -0.22844863 0.19485678 0.020843089 0.2092524 0.15069306 0.08804558 0.031644452
0.14789988 -0.1694925 0.020704122 0.110271156 0.16104716 -0.10583685 -0.09196986 -0.08290578
-0.17149134 -0.024181698 -0.1937536 -0.21962574 0.07029844 -0.22975123 0.09268471 -0.10198246
0.14305754 -0.15821803 0.15008818 0.22381628 0.1813708 -0.20378649 -0.24111316 -0.21032575
-0.12630019 0.21659067 -0.16635953 -0.20394543 0.1693755 -0.08483204 -0.16633739 0.19407345
-0.21948098 -0.019386688 0.1969245 0.011538447 -0.17612444 0.2569219 -0.16685636 -0.068689905
-0.04817497 -0.07297682 0.13127394 0.1410701 -0.117215686 0.21030568 -0.07667056 0.033800736
-0.021051139 0.18499127 0.19491479 -0.122466415 -0.06903088 -0.17890763 -0.12967463 -0.20246175
0.17590703 0.14795895 -0.12533662 -0.19506109 0.119336694 0.019331854 -0.09842663 -0.06434636
-0.05401745 0.1628977 0.019553248 0.24438547 0.10210567 0.024388852 -0.05765172 -0.19818947
-0.23300797 -0.23675975 -0.19405715 -0.20777422 -0.046953574 0.22723897 0.19671291 0.032164186
-0.1344834 0.23371479 -0.2209472 0.06334561 0.10280374 0.13666625 0.25630465 0.14994681

model.predict.predict.3.weight f4 [128]
00000000: 4212 7e3f 0000 803f 723d 7c3f 7af2 7d3f
00000010: f31d 803f 4dbf 803f 99e4 803f fac1 803f
00000020: 30e2 7e3f ece3 7d3f f7b1 803f 13b9 803f
00000030: 0000 803f 1946 793f 5d13 7e3f c9e2 7d3f
00000040: ea1f 813f 9b26 813f 7ca1 7c3f 0000 803f
00000050: 8618 7d3f 0bee 7d3f 0000 803f c1c8 7d3f
00000060: 81b0 813f f8a6 803f 1c39 803f 9259 7e3f
00000070: ceb9 7d3f 0000 803f b965 803f aa19 7e3f
00000080: f92f 7f3f 0000 803f 9902 803f 0000 803f
00000090: 780a 7f3f 3d3f 7e3f db6f 7c3f 82c7 803f
000000a0: 757c 7e3f c7cb 7e3f 3370 803f 0000 803f
000000b0: bfe9 7b3f a8d2 7d3f 7470 7f3f 6e17 7d3f
000000c0: ed00 803f c869 803f 4cc1 803f 184e 813f
000000d0: 02b3 803f 9503 7f3f 5d05 7e3f a6cf 7d3f
000000e0: 913b 823f 012d 7c3f 0c8b 7a3f e362 803f
000000f0: 5bf6 7d3f 5f2d 813f 0000 803f 0000 803f
00000100: adbb 813f da4c 7e3f 4223 803f 0000 803f
00000110: e333 813f 0000 803f a401 803f e81c 7d3f
00000120: 391c 7e3f 933f 7e3f 517a 7d3f c190 7d3f
00000130: ac10 803f 5f73 7e3f 2ad2 7d3f 8ac3 7e3f
00000140: 46c0 803f 4198 7e3f 5151 7d3f 58f6 813f
00000150: 34fc 813f 63e9 7c3f 607d 7e3f 23b7 803f
00000160: 0000 803f 0000 803f 5e88 7c3f 0000 803f
00000170: 9454 7f3f ace9 7d3f c5a3 803f 0000 803f
00000180: 2dfb 7d3f e108 7f3f a66a 7d3f 0000 803f
00000190: 0000 803f ef02 833f ca8e 803f bbf8 803f
000001a0: 368e 7e3f 784f 7c3f df55 803f a7a1 803f
000001b0: 7a4a 7d3f f558 813f 58d0 803f 0000 803f
000001c0: 0000 803f 0000 803f 84a8 7d3f 0000 803f
000001d0: e95e 7e3f bb94 7d3f 34e9 803f f94a 803f
000001e0: 5cc8 7f3f 2ff4 7d3f 3f6a 7e3f b7aa 813f
000001f0: 1255 7e3f c35a 803f 67bf 803f 4022 803f
0.9924661 1.0 0.9853126 0.99198115 1.000914 1.005838 1.0069762 1.0059197
0.99563885 0.99175906 1.005431 1.005648 1.0 0.97372586 0.99248296 0.9917417
1.0087864 1.0089906 0.98683906 1.0 0.98865545 0.9919135 1.0 0.9913445
1.013199 1.0050955 1.0017428 0.99355423 0.9911164 1.0 1.0031043 0.9925791
0.99682575 1.0 1.0000793 1.0 0.9962535 0.99315244 0.9860818 1.0060885
0.99408656 0.9952969 1.003424 1.0 0.98403543 0.9914956 0.99780965 0.98863876
1.0000283 1.0032282 1.005899 1.0101957 1.0054629 0.9961484 0.99226934 0.9914497
1.0174428 0.9850617 0.9786842 1.0030178 0.99204034 1.0091971 1.0 1.0
1.0135399 0.99336016 1.001076 1.0 1.009396 1.0 1.0000501 0.9887223
0.99261814 0.99315757 0.99014765 0.99049 1.0005088 0.9939479 0.9914881 0.9951712
1.0058677 0.9945107 0.98952204 1.0153303 1.0155091 0.9879362 0.9941006 1.0055889
1.0 1.0 0.9864558 1.0 0.9973843 0.9918468 1.0049978 1.0
0.9921139 0.99622923 0.9899086 1.0 1.0 1.023527 1.0043576 1.0075907
0.99435747 0.9855876 1.0026206 1.0049332 0.9894177 1.0105273 1.0063581 1.0
1.0 1.0 0.9908526 1.0 0.9936357 0.9905507 1.0071168 1.002288
0.999151 0.9920072 0.9938087 1.0130223 0.99348557 1.0027698 1.0058411 1.0010452

model.predict.predict.3.bias f4 [128]
00000000: f951 22bd 5143 2e3d 4132 11bd ee0f 23bd
00000010: ffc4 253d e5e9 253d b7e8 273d cde3 253d
00000020: 1821 28bd c7f6 28bd 4fe6 2a3d e030 2e3d
00000030: f6ce 323d b832 1ebd 29de 22bd aef2 25bd
00000040: f32f 2d3d 764f 263d 5341 1fbd 3abc 2e3d
00000050: 2762 38bd b02e 36bd ef63 343d 2704 23bd
00000060: bbba 283d 0ca1 273d 6cdb 2d3d 508b 233d
00000070: 0a2a 25bd c9d8 29bd 6e03 263d 9757 24bd
00000080: d2f6 23bd bb40 2dbd fd91 25bd 6d99 2cbd
00000090: d736 313d 19a9 22bd 7b69 22bd c988 38bd
000000a0: f233 24bd bbf4 223d 6e05 2d3d 5f09 3d3d
000000b0: 132c 20bd 731b 1fbd 5621 253d e126 21bd
000000c0: d577 31bd a9f2 27bd 39c0 3c3d 25c7 39bd
000000d0: 44a2 25bd d955 3a3d 06ea 233d 5be4 2a3d
000000e0: 7851 35bd 8280 1fbd e61b 1fbd 00e7 25bd
000000f0: 1921 223d 282d 263d cf36 2b3d e151 2b3d
00000100: 9e1a 283d 0dc7 22bd 19f5 27bd 2beb 2b3d
00000110: 1eef 283d a58f 293d aa72 273d 015b 20bd
00000120: acde 243d 5314 15bd 574b 2cbd 9074 21bd
00000130: 6e4e 253d 16d7 233d 6872 22bd 842d 343d
00000140: 9faa 263d 6390 25bd da79 27bd 5a73 283d
00000150: 71fd 373d 7c27 26bd 8689 2a3d 23cf 273d
00000160: c105 3dbd f8b4 29bd 7253 133d 30d9 2e3d
00000170: 4ea5 23bd 5aa9 22bd 4bb2 273d e7a8 29bd
00000180: 0a7c 22bd 49a1 253d 3afa 1ebd feff 2c3d
00000190: 3b57 2ebd 3b31 2c3d c7d7 263d dda3 293d
000001a0: 5d9a 233d 3290 1bbd 55a6 2abd d340 313d
000001b0: 676a 20bd d914 2c3d fc8b 283d 4333 3d3d
000001c0: f2e3 293d a001 2a3d 3f4a 21bd 0a4a 3a3d
000001d0: fba3 22bd a6bb 223d 8ac1 273d 533c 263d
000001e0: 93ab 423c cd67 22bd 83df 233d e955 29bd
000001f0: 5dc3 23bd ff92 2e3d 11ec 25bd 8984 26bd
-0.039628956 0.042544667 -0.035448316 -0.039810114 0.040471073 0.040506262 0.04099342 0.04050045
-0.041047186 -0.04125097 0.041723546 0.04252708 0.043654405 -0.038622588 -0.03976265 -0.04051464
0.042282056 0.040603124 -0.038880657 0.042659976 -0.04501548 -0.04447812 0.044040617 -0.03979888
0.041193705 0.04092507 0.042445585 0.03992778 -0.040323295 -0.041466508 0.040530615 -0.040122595
-0.040030308 -0.04229806 -0.04042243 -0.042138506 0.04326519 -0.039712045 -0.039651375 -0.045052323
-0.0400886 0.039784174 0.042241506 0.046151515 -0.039104532 -0.038844537 0.040314995 -0.03934372
-0.04332717 -0.041002903 0.046081755 -0.045355935 -0.04043795 0.045492027 0.040018104 0.041721683
-0.044267148 -0.038940914 -0.038844965 -0.040503502 0.039582346 0.040570408 0.041800316 0.041826133
0.04104101 -0.03974061 -0.041005228 0.04197232 0.041243665 0.041396756 0.040880837 -0.039149288
0.04025142 -0.036396336 -0.042064037 -0.039417803 0.040358 0.040000044 -0.039659888 0.04398872
0.04069006 -0.0404209 -0.04088769 0.041125633 0.044919435 -0.040565 0.04163506 0.040969025
-0.046148065 -0.04143235 0.03596825 0.042687595 -0.03995257 -0.039712287 0.040941518 -0.041420843
-0.039669074 0.040437017 -0.038812853 0.04223632 -0.04256366 0.042039137 0.040733125 0.041416038
0.039942134 -0.037979312 -0.041662533 0.04327471 -0.039163973 0.04201207 0.041149125 0.046191465
0.04147715 0.041505456 -0.039377447 0.045480765 -0.039707165 0.039729737 0.040956058 0.040584873
0.011881727 -0.039649773 0.04000808 -0.041341696 -0.039981235 0.042620655 -0.040508334 -0.04065374

model.predict.predict.3.running_mean f4 [128]
00000000: e89b 803e 0000 0000 0238 783f 2507 cb3c
00000010: 94bc 803f e853 e23e 4cce 2b3f 0727 9b3e
00000020: 6fec e13e a3ea 6437 3529 ca3c f961 253f
00000030: 0000 0000 cc97 813c 80ae 4f3f e7e9 f23e
00000040: 79a8 2b3f 825d 243e 4284 d43e 0000 0000
00000050: 9a97 593c ef46 5c38 0000 0000 fc4a 3a3e
00000060: 479a a23f e243 863c 546f 9a3d 3c72 1f3f
00000070: 8646 1939 0000 0000 5f18 4a3e 3b8d 033d
00000080: 9497 733d 0000 0000 a831 233f 0000 0000
00000090: aa98 f739 bbe5 aa3e 3214 c63e 363a d63a
000000a0: d48b 313e 30e1 f63b 8e53 263f 0000 0000
000000b0: f95e d43e 74ee b13d aaa3 803e ca31 a33e
000000c0: 1999 1d3e c60a df3e 0464 4937 1314 c83d
000000d0: a39c ee3e 18f8 4a3e fae9 6838 8eda 8036
000000e0: d86d 9d3c e018 1a3e 6d6f 613e bc79 d13d
000000f0: d2b7 1f38 d925 063f 0000 0000 0000 0000
00000100: e097 fc3e 6414 953e 3294 af3d 0000 0000
00000110: aa7e a73e 0000 0000 f3db 973e cbc1 803f
00000120: e13c 8d3e dfac 483e eaa7 ad3b 965b 1a3e
00000130: eafd 7c3d d705 f23e 2100 d637 2387 893e
00000140: 02a3 b43d 2f3f e43d d63e 093f 1665 ae3e
00000150: ce7a e33e 7c23 a737 cce2 fc33 9c2a 113f
00000160: 0000 0000 0000 0000 f578 4d3c 0000 0000
00000170: 6df0 ee3d 1c0a 363d 67f6 123e 0000 0000
00000180: bb47 dd3e 9345 f23e 4ff4 823f 0000 0000
00000190: 0000 0000 0fba 283c 7e44 2a3e 59ea 0b3f
000001a0: 3c0a 453e d839 3e3f 9aea 293b bc31 813f
000001b0: ffa1 693f 6d27 b23b 9802 0a3f 0000 0000
000001c0: 0000 0000 0000 0000 ad37 853e 0000 0000
000001d0: 2f65 d73d 29ad 0a3e 7e80 833b 0cf4 d639
000001e0: 63a3 253c 2f77 b33e b906 5c3e c4f8 7f3a
000001f0: 468c de3e 1bb8 b03e 24f2 613e a270 733b
0.25118947 0.0 0.9696046 0.02478368 1.005755 0.4420464 0.6711166 0.30303213
0.44125697 1.364449e-05 0.024677852 0.6460262 0.0 0.015819453 0.8112564 0.47444078
0.67053944 0.16051295 0.41507155 0.0 0.013280774 5.251815e-05 0.0 0.18192667
1.2703332 0.01638979 0.075407654 0.6228368 0.00014617489 0.0 0.1973586 0.03211711
0.059470728 0.0 0.63747644 0.0 0.00047225255 0.33378395 0.38687283 0.0016344253
0.17338496 0.0075341687 0.64971244 0.0 0.41478708 0.086880594 0.25124866 0.31873924
0.15390433 0.43562907 1.200382e-05 0.09769454 0.4660388 0.19821203 5.5531018e-05 3.8401404e-06
0.019217417 0.15048552 0.22015162 0.10228297 3.807975e-05 0.524015 0.0 0.0
0.4933462 0.2911712 0.08573188 0.0 0.32713825 0.0 0.29659995 1.0059141
0.2758551 0.19597195 0.005299558 0.15074 0.06176559 0.4727008 2.5510848e-05 0.26860914
0.08820154 0.11144864 0.53611505 0.34061497 0.4442963 1.9924475e-05 1.17759186e-07 0.5670564
0.0 0.0 0.012541045 0.0 0.11666951 0.044443235 0.14351808 0.0
0.43218789 0.47318706 1.0230807 0.0 0.0 0.010298266 0.1662769 0.5465446
0.19242185 0.7430701 0.0025927187 1.0093303 0.9126281 0.005436829 0.5391021 0.0
0.0 0.0 0.2601904 0.0 0.10517346 0.13542618 0.00401312 0.0004099909
0.010109755 0.35051867 0.2148694 0.0009764547 0.43466395 0.3451546 0.22065026 0.0037145992

model.predict.predict.3.running_var f4 [128]
00000000: 1f56 0c3d 732b 723c 570f 7f3d 05c5 9d3c
00000010: a456 133d 48b5 753d f6d1 213d b694 b63d
00000020: 68d1 c43c 112f 723c 0fb6 9f3c b27c 223d
00000030: 732b 723c 364b 863c 375f 8c3d 1425 883d
00000040: dc29 553d cb8d 0f3d 7713 d33c 732b 723c
00000050: d263 8a3c 4636 723c 732b 723c 0c88 d03c
00000060: 8ff5 2b3d b16d 893c 9c46 333d 4d84 0b3d
00000070: b96b 723c 732b 723c 48dd 1f3d 2344 913c
00000080: abea b33c 732b 723c 943e fe3d 732b 723c
00000090: cb55 723c 90fa 383d 9905 dd3c 4e35 753c
000000a0: fe05 9f3c 0499 803c ada3 343d 732b 723c
000000b0: 1cec dd3c d44f d03c fe0f 923d 130b 483d
000000c0: a222 3f3d 091b 193e 402d 723c c919 083d
000000d0: ac29 df3d 5a36 573d 6f3b 723c bb2b 723c
000000e0: 077c 7a3c 3bbe ee3c b477 b33c 0e60 ad3c
000000f0: 123a 723c f193 2f3d 732b 723c 732b 723c
00000100: e84b ed3c c744 f03c a39b c93c 732b 723c
00000110: 62f4 d73c 732b 723c e996 5d3d 8b8a 313d
00000120: d667 8e3d da7f 873c c1a8 793c 2672 de3c
00000130: 05b9 da3c 7ee7 423d 4532 723c f9be 073d
00000140: 7d9d de3c 4aff 113d f64b fc3c 306d 8f3c
00000150: d0fb b83c e72e 723c 732b 723c 9579 613d
00000160: 732b 723c 732b 723c 681f 833c 732b 723c
00000170: 27a1 eb3c a369 ae3c cf4c ed3c 732b 723c
00000180: 763d 083d c63a b23d 5d1b 593d 732b 723c
00000190: 732b 723c c85e 7f3c c06c 463d 9f85 c23d
000001a0: cc18 4b3d 4c0b ca3c c351 773c b16e 763d
000001b0: bcd5 323d c6e9 793c 6c6c 353d 732b 723c
000001c0: 732b 723c 732b 723c bfd1 373d 732b 723c
000001d0: ef70 333d ce4e 103d b927 773c abbc 723c
000001e0: 42d8 7e3c d727 d93c c809 673d dc21 733c
000001f0: b5ee cf3d b59e 053d 4ea2 5a3d 53fc 753c
0.03426182 0.014780867 0.06227049 0.019258985 0.0359713 0.059987336 0.039506875 0.08915083
0.024025634 0.014781729 0.019495992 0.0396697 0.014780867 0.016393285 0.06854098 0.06647697
0.052041873 0.035047334 0.025766117 0.014780867 0.016893301 0.014783448 0.014780867 0.025455497
0.04198223 0.016775938 0.04376851 0.03406172 0.014796191 0.014780867 0.03902939 0.017732685
0.021962484 0.014780867 0.124142796 0.014780867 0.014790962 0.04516083 0.026980208 0.014966322
0.019412037 0.015697964 0.044101406 0.014780867 0.027090125 0.02542869 0.071319565 0.048838686
0.046663888 0.1495172 0.014781296 0.033227716 0.1089662 0.052542068 0.014784678 0.014780934
0.0152883595 0.029143443 0.021907665 0.021163967 0.014784353 0.042865697 0.014780867 0.014780867
0.028966859 0.02932967 0.024610346 0.014780867 0.026361648 0.014780867 0.054098997 0.043345015
0.06953399 0.016540457 0.015237988 0.02715404 0.026699552 0.04758405 0.014782493 0.03314111
0.027174706 0.035643853 0.03079794 0.01750812 0.022581011 0.01478169 0.014780867 0.05504759
0.014780867 0.014780867 0.016006187 0.014780867 0.028763367 0.021290606 0.02896729 0.014780867
0.03326174 0.087026164 0.05300461 0.014780867 0.014780867 0.015586562 0.048443556 0.094981425
0.049584195 0.02466359 0.015095177 0.060164157 0.043660864 0.01525349 0.044292852 0.014780867
0.014780867 0.014780867 0.044877764 0.014780867 0.043808874 0.035231404 0.015085154 0.01481549
0.01555449 0.026508255 0.056405813 0.014839616 0.10152952 0.032622058 0.053377442 0.015013772
