tmp/GAT/checkpoint1.pt (torch, 154456 bytes, 47 tensors)

model.gnn.gnn_layers.0.gat_conv.attn_l f4 [1, 8, 8]
-0.17710313 0.08591478 -0.2777946 -0.051240582 0.2560274 0.5033417 -0.5636749 -0.06992424
-0.34531662 -0.015225623 -0.089365415 -0.058437236 -0.01761913 -0.07635257 0.4435033 0.34050933
-0.027097344 -0.32035574 -0.4278904 -0.23678058 0.04295367 -0.37724662 0.09860428 0.38125977
-0.22777772 -0.12779704 0.048762143 0.2806645 0.021746922 0.2742558 -0.578631 -0.79795736
0.12454489 -0.10317951 0.031051023 0.13324186 0.8696325 0.045838833 -0.052194916 0.40913242
0.2182027 -0.4319337 0.053622246 0.08558427 -0.2005726 0.45082355 -0.35915738 -0.35578075
1.1268227 -0.3219113 -0.36413026 -0.33675283 -0.24220493 -0.2299209 0.41805133 0.7112005
0.5453571 -0.05395542 0.3376288 0.36896724 0.61580575 0.20078395 0.70619845 -0.014471643
00000000: 865a 35be 17f4 af3d 183b 8ebe a5e1 51bd
00000010: 0616 833e 00db 003f 004d 10bf 7134 8fbd
00000020: 57cd b0be e474 79bc 3705 b7bd e25b 6fbd
00000030: fe55 90bc bc5e 9cbd dd12 e33e 3d57 ae3e
00000040: 40fb ddbc ab05 a4be 7314 dbbe 9c76 72be
00000050: 30f0 2f3d 7826 c1be 0af1 c93d 7b34 c33e
00000060: 903e 69be 3add 02be d0ba 473d 42b3 8f3e
00000070: 9a26 b23c 426b 8c3e 2921 14bf ef46 4cbf
00000080: 6411 ff3d c74f d3bd b75e fe3c 8e70 083e
00000090: 3ca0 5e3f 80c1 3b3d 56ca 55bd ce79 d13e
000000a0: 8770 5f3e 6a26 ddbe 00a3 5b3d ce46 af3d
000000b0: e762 4dbe 58d2 e63e 7ae3 b7be e528 b6be
000000c0: ba3b 903f 8fd1 a4be 486f babe de6a acbe
000000d0: 9204 78be 6270 6bbe d30a d63e 3c11 363f
000000e0: 869c 0b3f 5c00 5dbd afdd ac3e 46e9 bc3e
000000f0: 72a5 1d3f 4f9a 4d3e 6cc9 343f 781a 6dbc

model.gnn.gnn_layers.0.gat_conv.attn_r f4 [1, 8, 8]
-0.22323592 0.09753452 -0.18992569 0.04720576 0.043536365 0.029590711 0.27770716 -0.16304202
0.8629508 -0.1677563 -0.11867351 0.21920437 0.15020202 -0.45948854 0.24176884 -0.09530217
0.16502935 -0.02838067 0.1795697 0.0365724 0.15664694 0.26556003 -0.44704914 0.21133736
0.07788208 0.27550244 -0.20611173 -0.2186261 -0.18508667 0.8103224 -0.009594194 -0.17450185
0.3066455 -0.07632705 0.042438995 0.23982626 0.2885158 0.17448665 0.3470717 -0.5042426
0.13149132 -0.01785812 -0.009019215 -0.54738307 0.060114723 -0.196916 0.10033114 0.0059612277
0.047017507 -0.09521088 0.16859002 -0.11783932 0.15065022 0.34481272 0.101503685 0.12265747
0.031605575 0.15230592 -0.10215753 -0.66476744 0.28649208 0.25320378 0.17319694 -0.043043602
00000000: f597 64be 2ec0 c73d e17b 42be d45a 413d
00000010: 3053 323d 3868 f23c a22f 8e3e 7df4 26be
00000020: 58ea 5c3f 4fc8 2bbe 190b f3bd 1c77 603e
00000030: 8fce 193e 1542 ebbe 4092 773e c92d c3bd
00000040: 74fd 283e 947e e8bc 1fe1 373e f1cc 153d
00000050: 0e68 203e 7cf7 873e a0e3 e4be d268 583e
00000060: a480 9f3d a80e 8d3e f40e 53be 85df 5fbe
00000070: 5c87 3dbe 4a71 4f3f f730 1dbc 9db0 32be
00000080: a400 9d3e 5b51 9cbd 83d4 2d3d 0495 753e
00000090: 58b8 933e a1ac 323e 62b3 b13e 0b16 01bf
000000a0: a9a5 063e 314b 92bc 54c5 13bc 4c21 0cbf
000000b0: db3a 763d 59a4 49be 6a7a cd3d 6756 c33b
000000c0: 6e95 403d ecfd c2bd dda2 2c3e be55 f1bd
000000d0: 0d44 1a3e 4b8b b03e 2ae1 cf3d d733 fb3d
000000e0: d974 013d 15f6 1b3e f837 d1bd 332e 2abf
000000f0: 17af 923e eda3 813e 8a5a 313e 7d4e 30bd

model.gnn.gnn_layers.0.gat_conv.bias f4 [64]
0.0332516 -0.016794512 -0.010998331 -0.011332714 0.008547551 -0.0055615725 -0.03325857 0.02787466
0.018037213 0.014793282 -0.013830954 0.01871609 0.008133484 0.050801743 0.032929733 0.021155186
0.015491529 -0.03657927 0.0051055606 -0.04361548 -0.033436496 -0.015233907 0.058048934 0.03557305
0.04149718 0.019413123 -0.0032225018 0.020431567 -0.021413606 0.0037114678 -0.019043028 0.0030147394
-0.011929622 -0.050930277 0.012671718 0.0075490363 0.054997858 -0.02694843 0.0005849564 -0.017087026
-0.029678334 0.0031690467 0.010279071 -0.013909305 -0.017415222 0.020785535 -0.011947844 -0.011233645
0.010144072 -0.0069915606 -0.0220931 -0.012679029 -0.016766481 -0.010246846 -0.027440736 0.028445639
0.08236454 -0.009713191 -0.011511631 -0.008961412 0.023304949 0.0023313845 0.017280458 0.022513457
00000000: d432 083d a594 89bc 5832 34bc d9ac 39bc
00000010: 070b 0c3c da3d b6bb 233a 08bd 6659 e43c
00000020: c7c2 933c 865f 723c 3a9b 62bc 7c52 993c
00000030: 4e42 053c 7d15 503d 54e1 063d a44d ad3c
00000040: 2fd0 7d3c 25d4 15bd 8c4c a73b 25a6 32bd
00000050: b5f4 08bd a397 79bc b8c4 6d3d 0cb5 113d
00000060: f2f8 293d 4508 9f3c 9c30 53bb 1a60 a73c
00000070: 966b afbc 193c 733b 2000 9cbc ef92 453b
00000080: 7674 43bc 449c 50bd 0a9d 4f3c e85d f73b
00000090: 6f45 613d f4c2 dcbc c257 193a 17fa 8bbc
000000a0: fa1f f3bc c8af 4f3b 8c69 283c dbe3 63bc
000000b0: 5eaa 8ebc 6d46 aa3c e4c0 43bc 520d 38bc
000000c0: 5233 263c 7619 e5bb 97fc b4bc b4bb 4fbc
000000d0: dc59 89bc 63e2 27bc 65cb e0bc d406 e93c
000000e0: bdae a83d 1324 1fbc 489b 3cbc e3d2 12bc
000000f0: 05ea be3c 24ca 183b bf8f 8d3c 246e b83c

model.gnn.gnn_layers.0.gat_conv.fc.weight f4 [64, 30]
0.044216454 -0.12043138 0.1886422 -0.12849066 0.19015238 0.1448855 0.10017379 -0.2477399
0.43448365 -0.19249503 0.42832768 -0.053994294 0.22215408 -0.08529903 0.1460989 0.42657214
-0.08568257 -0.11937023 -0.105611995 0.06929388 -0.12638402 -0.16899109 -0.16812217 0.33431277
-0.17061816 0.7728759 0.15863453 -0.1076132 -0.38485736 -0.24383454 0.07915855 0.01994758
0.50106484 -0.061541844 0.108218804 -0.17361738 0.0845408 -0.0149715 -0.045222986 0.17855401
-0.058549732 -0.17709827 0.10441708 0.34344205 0.26942968 -0.19175409 -0.27440533 0.08928209
-0.05067938 0.113894016 -0.040317424 0.07195681 0.3444457 0.33358127 0.22187413 0.10177441
-0.43953365 -0.38675767 -0.25304982 -0.11612125 0.25560907 0.11661127 0.031405516 0.4487914
-0.20360535 0.157779 0.23155887 0.062114347 0.21154222 -0.53107375 0.13376732 0.047171865
0.30976963 -0.29142997 -0.118175805 0.17973977 0.24653341 0.13697746 0.006762928 -0.26636156
-0.029215455 -0.1475713 0.3660366 0.12968543 -0.4576 0.0047280113 0.32840472 -0.120164216
0.032956023 -0.15748167 0.11200358 0.03788684 -0.05686237 0.08638561 0.043729052 0.06331397
-0.31653938 0.17466018 0.20278403 -0.19688702 0.40971056 -0.17058492 -0.10694986 -0.35963178
-0.06849852 -0.27230352 0.26025078 -0.18969028 -0.14851062 -0.23111264 0.06705588 -0.083604604
0.17516789 0.05608755 -0.20217398 0.06431245 -0.3242468 0.20035182 0.21998924 -0.01752984
-0.37168372 -0.11006435 0.17696625 -0.07609471 -0.09577105 0.3258469 0.26266322 -0.123607896
0.12082453 0.1530868 -0.060131807 0.023509478 -0.050095323 -0.030436607 0.6682528 -0.026499616
-0.18359785 0.11466164 0.12058793 0.2461266 0.115758285 0.2386931 -0.17188351 0.15428588
0.25218526 0.21670918 -0.07913371 -0.16766515 -0.11593656 -0.31087026 -0.13449068 0.116848506
0.050092764 0.40420488 0.52718437 -0.052848227 0.17382726 0.08460769 0.27214375 -0.0793481
-0.4236821 0.27126706 0.058735263 -0.0067021684 0.33195987 -0.41470635 -0.15101384 -0.09541837
-0.034204517 -0.55065423 -0.577846 0.30181488 -0.15099399 -0.16734634 0.18154371 -0.07385308
0.0398724 0.37896088 -0.048680104 0.035590865 0.16773833 0.299072 -0.036689855 -0.056885384
-0.07877952 0.2105484 -0.07366099 0.056166634 0.010155809 -0.7210439 -0.083197385 0.16993812
-0.16264287 -0.3200011 0.14610422 0.110848606 0.16548592 -0.17110783 0.15398715 0.10928807
-0.049227137 0.19748202 -0.07192224 0.12347251 0.05835504 -0.3440133 0.18733627 -0.06799562
-0.1026568 0.04305576 -0.10529788 -0.34433454 0.14712988 0.17394608 0.24643652 -0.020559117
-0.106843434 0.25913936 0.16756335 0.01117978 -0.2834697 -0.12720571 0.008155942 0.037622605
0.15580398 -0.054499675 -0.08678546 0.05366241 -0.38206974 0.19267993 -0.056175716 0.21999814
0.067843325 0.050339453 -0.24761952 0.045542423 0.53437173 0.043879263 0.20566155 0.23618111
0.021847025 0.009644852 -0.021583287 -0.23426801 0.099946454 0.4838655 0.029158011 -0.047493264
0.16553944 -0.007948897 -0.075694144 0.08749529 0.22785608 0.15552832 -0.39932486 0.07849435
00000000: 501c 353d baa4 f6bd 6c2b 413e 0e93 03be
00000010: 4eb7 423e dd5c 143e ea27 cd3d 87af 7dbe
00000020: a474 de3e 6b1d 45be c44d db3e 1f29 5dbd
00000030: 5c7c 633e 42b1 aebd f39a 153e aa67 da3e
00000040: 587a afbd 6178 f4bd 1a4b d8bd f3e9 8d3d
00000050: d06a 01be 000c 2dbe 3828 2cbe 0b2b ab3e
00000060: 87b6 2ebe 32db 453f 1771 223e 4f64 dcbd
00000070: 060c c5be c3af 79be e11d a23d 1b69 a33c
00000080: c945 003f 4d13 7cbd d2a1 dd3d c1c8 31be
00000090: ba23 ad3d 064b 75bc bd3b 39bd ddd6 363e
000000a0: d8d1 6fbd 4059 35be 9fd8 d53d a3d7 af3e
000000b0: b0f2 893e 2f5b 44be db7e 8cbe 87d9 b63d
000000c0: 2e95 4fbd 4441 e93d e223 25bd 185e 933d
000000d0: 305b b03e 2acb aa3e f932 633e 1a6f d03d
000000e0: 8e0a e1be 1a05 c6be bf8f 81be fad0 edbd
000000f0: 31df 823e e4d1 ee3d 12a3 003d fdc7 e53e
00000100: ec7d 50be d190 213e c51d 6d3e 9d6b 7e3d
00000110: 869e 583e 73f4 07bf 4dfa 083e 4937 413d
00000120: 209a 9e3e 4f36 95be 2806 f2bd b40d 383e
00000130: 4173 7c3e d243 0c3e 8d9b dd3b 8b60 88be
00000140: 4055 efbc ee1c 17be 2669 bb3e 42cc 043e
00000150: 8c4a eabe 6fed 9a3b aa24 a83e a818 f6bd
00000160: e5fc 063d e042 21be 2262 e53d 3b2f 1b3d
00000170: 84e8 68bd f0ea b03d 3c1d 333d c1aa 813d
00000180: 7311 a2be 1eda 323e 9ea6 4f3e c09c 49be
00000190: 95c5 d13e d0ad 2ebe 8708 dbbd a821 b8be
000001a0: f448 8cbd 5e6b 8bbe 973f 853e 2b3e 42be
000001b0: 2b13 18be cba8 6cbe 9854 893d e438 abbd
000001c0: 365f 333e 0fbc 653d b206 4fbe 3fb6 833d
000001d0: ad03 a6be 0729 4d3e dc44 613e bd9a 8fbc
000001e0: 544d bebe 6b69 e1bd a436 353e 8bd7 9bbd
000001f0: 9d23 c4bd 68d5 a63e cb7b 863e 2326 fdbd
00000200: da72 f73d c9c2 1c3e c54c 76bd f396 c03c
00000210: c130 4dbd 3156 f9bc 9e12 2b3f b915 d9bc
00000220: 1301 3cbe b9d3 ea3d cef6 f63d 9d08 7c3e
00000230: ae12 ed3d f76b 743e 3b02 30be 1efd 1d3e
00000240: 6d1e 813e 03e9 5d3e db10 a2bd 6ab0 2bbe
00000250: 2670 edbd 632a 9fbe edb7 09be 454e ef3d
00000260: 122e 4d3d f1f3 ce3e 8ef5 063f 6277 58bd
00000270: c6ff 313e cc46 ad3d 6d56 8b3e 4281 a2bd
00000280: dcec d8be 84e3 8a3e 6394 703d dd9d dbbb
00000290: a5f6 a93e 6454 d4be 5fa3 1abe b56a c3bd
000002a0: 091a 0cbd adf7 0cbf b7ed 13bf 7b87 9a3e
000002b0: 2b9e 1abe d75c 2bbe 98e6 393e 4940 97bd
000002c0: 3e51 233d 2907 c23e ca64 47bd bac7 113d
000002d0: 99c3 2b3e f71f 993e 1a48 16bd a600 69bd
000002e0: 2857 a1bd 009a 573e 93db 96bd fc0e 663d
000002f0: 8d64 263c 5596 38bf 6463 aabd 4204 2e3e
00000300: da8b 26be 2fd7 a3be 589c 153e 9804 e33d
00000310: 2475 293e e436 2fbe cfae 1d3e 6cd2 df3d
00000320: 65a2 49bd ba38 4a3e f84b 93bd 28df fc3d
00000330: b205 6f3d 8322 b0be 14d5 3f3e 4a41 8bbd
00000340: ba3d d2bd 3d5b 303d 6aa6 d7bd 9e4c b0be
00000350: 37a9 163e ec1e 323e db59 7c3e 986b a8bc
00000360: bbd0 dabd eaad 843e ba95 2b3e 652b 373c
00000370: f122 91be 3742 02be 80a0 053c 291a 1a3d
00000380: 148b 1f3e 0d3b 5fbd 93bc b1bd 1dcd 5b3d
00000390: a59e c3be e34d 453e 8218 66bd 3147 613e
000003a0: 71f1 8a3d be30 4e3d f98f 7dbe b18a 3a3d
000003b0: 96cc 083f beba 333d f198 523e 76d9 713e
000003c0: 88f8 b23c 7105 1e3c 6fcf b0bc f4e3 6fbe
000003d0: bab0 cc3d 38bd f73e c8dc ee3c 4c88 42bd
000003e0: 2c83 293e 173c 02bc 8805 9bbd bb30 b33d
000003f0: 1b53 693e d142 1f3e 4f74 ccbe a5c1 a03d

model.gnn.gnn_layers.0.gat_conv.res_fc.weight f4 [64, 30]
-0.06633486 0.18181637 0.12960659 -0.14203481 -0.23461162 0.3913455 0.61610633 0.14835915
0.17086463 0.031784534 0.19377288 0.039404295 -0.14763814 0.13772886 0.05062067 0.29047292
0.028077433 0.17439777 -0.03100006 0.1312433 0.015710635 -0.06824355 0.08713031 -0.15128876
0.04621322 -0.38133007 0.20539452 -0.6130561 -0.21906215 -0.37103707 -0.23449513 -0.13698997
-0.7134661 -0.09035804 0.070778854 0.18418878 -0.22184488 -0.108842306 0.1607594 0.11321631
0.039216164 -0.55032456 -0.19772439 0.36132652 0.1286005 0.110678405 -0.2048112 -0.1279176
-0.2187332 0.08099492 -0.15046825 -0.032251064 0.091834694 0.31351843 0.2850749 -0.14181748
-0.47189364 -0.2838508 -0.09422608 -0.10231767 -0.35272652 -0.027623046 -0.118587516 0.028865466
0.2887686 0.073065154 -0.25609055 0.055870235 -0.11005352 -0.10214011 0.20619503 0.20780964
0.045481596 -0.17235053 0.21542124 0.14846022 0.023894308 -0.33518198 -0.18251997 -0.2528973
0.43204543 0.11057869 0.013835355 0.055889335 -0.2826677 0.3617864 0.1794079 -0.271453
-0.14259472 0.15448916 -0.16941343 0.32099417 -0.4675781 0.19676358 0.34830537 0.19963863
-0.08173717 0.48239 0.13937807 0.24500994 -0.4765221 0.00087326486 0.15725984 -0.0369099
0.45870465 0.3194608 0.5139679 -0.020171668 0.23053871 -0.10660269 -0.13343577 0.027644172
-0.06684625 -0.080941394 -0.24121095 -0.10640319 -0.35797578 0.0872141 -0.2981603 0.09337122
0.07584826 0.41864836 0.12315176 -0.2663189 0.16340713 -0.17713033 0.27616432 -0.093754694
-0.020034613 0.3998628 -0.02266111 -0.28643042 -0.41054285 0.26544178 0.05182316 0.09224888
-0.23737174 0.07518148 -0.28021783 0.088392705 -0.13092673 0.004396733 -0.1689244 -0.16511858
-0.31395063 0.110141516 0.17474116 0.24102075 -0.2890487 -0.2603745 -0.45221487 0.25455108
-0.3168139 -0.13994618 0.15833163 0.3556944 0.048018396 -0.20265232 0.108371444 -0.024435975
-0.0049822936 -0.16004698 -0.20806666 0.1280307 0.26182738 0.011173309 0.2693502 0.2640804
0.089705184 -0.13227318 -0.20215507 0.11904389 -0.13008691 0.27775738 0.39267516 0.5194621
-0.012361391 0.05494363 -0.09474383 -0.292708 -0.08829546 -0.24590316 0.038483087 -0.1319594
0.37218547 0.20059967 0.13136713 0.34251487 0.27070582 -0.14517467 0.38861728 -0.12454783
-0.13524108 -0.09247074 0.38145164 0.04247322 0.111150675 -0.014110991 -0.07316389 0.19197597
-0.16617718 -0.22341841 0.043673094 -0.05585543 0.25256008 -0.17057194 0.10373237 -0.22444557
0.1408178 0.3603517 0.20812072 -0.31709903 0.22001219 0.47234875 0.111992285 -0.15357545
0.077724926 0.012247539 0.17372726 -0.09124929 0.18987413 -0.12424733 -0.110825256 0.28938133
-0.061592944 0.18906741 0.087981485 0.13971847 -0.20463009 0.047370102 -0.025597213 -0.054075528
-0.33729383 -0.01919418 -0.047397908 0.038121514 -0.03502289 0.15956542 0.15118761 -0.13141328
-0.30061013 -0.21539545 0.020410618 -0.104141966 0.057191 0.38017565 0.50985825 -0.15202956
0.5611624 0.12275193 -0.04172607 0.022533698 -0.0044739856 -0.094936624 -0.267102 -0.16211204
00000000: 92da 87bd 122e 3a3e 97b7 043e 9371 11be
00000010: 073e 70be 705e c83e 25b9 1d3f 76eb 173e
00000020: 23f7 2e3e 8030 023d 666c 463e 6666 213d
00000030: 742e 17be cb08 0d3e 9f57 4f3d deb8 943e
00000040: a502 e63c 5495 323e d6f3 fdbc a564 063e
00000050: 97b3 803c 46c3 8bbd 6071 b23d 71eb 1abe
00000060: 134a 3d3d b23d c3be f152 523e 3ff1 1cbf
00000070: d451 60be 92f8 bdbe 7e1f 70be 1947 0cbe
00000080: b7a5 36bf a30d b9bd 81f4 903d fc9b 3c3e
00000090: 4e2b 63be b7e8 debd 1d9e 243e f4dd e73d
000000a0: 21a1 203d 12e2 0cbf 4378 4abe caff b83e
000000b0: d9af 033e 5cab e23d 07ba 51be d5fc 02be
000000c0: 99fb 5fbe aae0 a53d 5914 1abe b119 04bd
000000d0: d413 bc3d 7d85 a03e 56f5 913e 9a38 11be
000000e0: 0b9c f1be e454 91be 9af9 c0bd ed8b d1bd
000000f0: 9298 b4be ba49 e2bc 03de f2bd 4577 ec3c
00000100: 7ad9 933e 2fa3 953d 4d1e 83be 30d8 643d
00000110: bd63 e1bd d62e d1bd ca24 533e 0dcc 543e
00000120: e94a 3a3d a87c 30be 6397 5c3e f505 183e
00000130: ffbd c33c f99c abbe 84e6 3abe c17b 81be
00000140: 0f35 dd3e 1577 e23d afad 623c 37ec 643d
00000150: d2b9 90be 113c b93e b4b6 373e e3fb 8abe
00000160: 5a04 12be 6832 1e3e b77a 2dbe 5959 a43e
00000170: 6666 efbe 647c 493e 1555 b23e 126e 4c3e
00000180: d165 a7bd d2fb f63e 20b9 0e3e e3e3 7a3e
00000190: b4fa f3be d0eb 643a b908 213e d62e 17bd
000001a0: 56db ea3e 5e90 a33e 6693 033f 0e3f a5bc
000001b0: 5712 6c3e 8352 dabd 63a3 08be 0876 e23c
000001c0: b0e6 88bd 9ac4 a5bd 0100 77be eae9 d9bd
000001d0: 9a48 b7be 4e9d b23d 78a8 98be 6939 bf3d
000001e0: 5556 9b3d 1459 d63e fd36 fc3d f35a 88be
000001f0: 3354 273e a761 35be 6965 8d3e 7602 c0bd
00000200: a11f a4bc d1ba cc3e cba3 b9bc 02a7 92be
00000210: ac32 d2be fce7 873e 8644 543d fbec bc3d
00000220: 9411 73be bff8 993d b678 8fbe 3c07 b53d
00000230: a811 06be 7812 903b 85fa 2cbe d814 29be
00000240: 23be a0be e091 e13d 59ef 323e 25ce 763e
00000250: 31fe 93be ce4f 85be b588 e7be 8554 823e
00000260: 6e35 a2be 0d4e 0fbe b021 223e 941d b63e
00000270: f0ae 443d 1784 4fbe d9f1 dd3d f42d c8bc
00000280: 8242 a3bb 5be3 23be 6d0f 55be 7b1a 033e
00000290: 3d0e 863e 4110 373c 45e8 893e 8c35 873e
000002a0: 5ab7 b73d 9f72 07be bd01 4fbe 48cd f33d
000002b0: 8135 05be 3736 8e3e b80c c93e 78fb 043f
000002c0: 6f87 4abc 920c 613d 0e09 c2bd d3dd 95be
000002d0: 40d4 b4bd 0ace 7bbe 71a0 1d3d 5d20 07be
000002e0: 188f be3e 006a 4d3e 1b85 063e 1c5e af3e
000002f0: f499 8a3e aba8 14be d8f8 c63e ef12 ffbd
00000300: a37c 0abe 4d61 bdbd a14d c33e 66f8 2d3d
00000310: f7a2 e33d c931 67bc f3d6 95bd 5995 443e
00000320: 5a2a 2abe ccc7 64be 8fe2 323d aac8 64bd
00000330: 8e4f 813e 69aa 2ebe a371 d43d 0fd5 65be
00000340: 8b32 103e 0580 b83e 991d 553e ce5a a2be
00000350: e04a 613e b2d7 f13e 365c e53d e242 1dbe
00000360: 3f2e 9f3d e7a9 483c 8fe5 313e e8e0 babd
00000370: 5d6e 423e 6275 febd 5af8 e2bd ca29 943e
00000380: e248 7cbd e39a 413e a32f b43d 5c12 0f3e
00000390: 8d8a 51be 2707 423d 3fb1 d1bc 4d7e 5dbd
000003a0: c7b1 acbe 1d3d 9dbc 4f24 42bd 4e25 1c3d
000003b0: 2974 0fbd 1e65 233e edd0 1a3e 3491 06be
000003c0: 92e9 99be a090 5cbe 2b34 a73c 6248 d5bd
000003d0: 1c41 6a3d 62a6 c23e 1286 023f a3ad 1bbe
000003e0: 57a8 0f3f 5d65 fb3d f5e8 2abd 9798 b83c
000003f0: 839a 92bb 226e c2bd 98c1 88be b300 26be

model.gnn.gnn_layers.1.gat_conv.attn_l f4 [1, 8, 8]
-0.044904444 -0.17766479 -0.23959464 -0.4081179 0.66503084 0.40006137 -0.17640814 0.39587218
-0.752782 0.29510143 -0.6183937 -0.07155485 0.69899535 0.43681744 -0.051989283 0.04870901
0.12017394 0.3600295 0.25805387 -0.25765246 0.051411383 -1.0273052 0.2317329 -0.3874548
-0.11448141 0.30657157 -0.07849669 0.13237232 0.08571212 0.05451285 0.60665786 0.08574403
-0.31663713 -0.23432027 0.38884684 0.18245211 -0.03468533 -0.5474399 0.621493 0.17190136
0.3216757 0.73329264 -0.39926943 -0.49659312 -0.1674306 -0.17273556 0.83326656 -0.17990287
0.10286911 -0.33463228 0.41680738 0.7264721 -0.25172803 -0.120019406 0.46814278 0.12574595
0.21919078 0.28726393 0.4412633 0.1035723 -0.25028995 0.13091862 1.2174081 0.14247048
00000000: b9ed 37bd c2ed 35be 4c58 75be d4f4 d0be
00000010: 763f 2a3f d8d4 cc3e 56a4 34be c2af ca3e
00000020: 52b6 40bf 8917 973e 0d4f 1ebf 598b 92bd
00000030: 5cf1 323f 89a6 df3e b7f2 54bd 1983 473d
00000040: c11d f63d c955 b83e a31f 843e 06eb 83be
00000050: be94 523d bd7e 83bf 644b 6d3e 7a60 c6be
00000060: 3b75 eabd f3f6 9c3e dfc2 a0bd 9c8c 073e
00000070: d689 af3d de48 5f3d ee4d 1b3f 919a af3d
00000080: 431e a2be a7f1 6fbe ef16 c73e bad4 3a3e
00000090: 3412 0ebd 0525 0cbf 2a1a 1f3f e906 303e
000000a0: adb2 a43e 11b9 3b3f 0b6d ccbe 7441 febe
000000b0: ed72 2bbe 97e1 30be f550 553f 7538 38be
000000c0: 0aad d23d ec54 abbe c767 d53e 13fa 393f
000000d0: 7fe2 80be bccc f5bd 69b0 ef3e 8cc3 003e
000000e0: 8c73 603e 4214 933e 43ed e13e b71d d43d
000000f0: 0126 80be 880f 063e 07d4 9b3f c8e3 113e

model.gnn.gnn_layers.1.gat_conv.attn_r f4 [1, 8, 8]
-0.054190394 0.0938981 -0.35144332 -0.20350115 0.048476975 -0.44747007 -0.3323459 -0.12451893
-0.7163308 -0.30179977 0.17040431 -0.26181513 0.056203958 0.07179701 0.11687756 -0.04873081
0.3969581 -0.10192834 0.3457354 -0.5018933 -0.35186735 -0.0046648136 -0.17727077 0.027873892
0.13428141 0.20303823 -0.34755823 -0.3030831 0.79283834 0.14896606 -0.3554648 -0.11062228
0.24840222 0.16123995 -0.44882637 0.09063751 -0.40480232 -0.16570723 -0.13839576 0.44217587
0.25464186 -0.10059351 -0.55803835 0.7817541 -0.21744908 -0.21539403 -0.47778976 -1.096216
0.500478 0.32345477 -0.023911778 -0.41196668 0.030426085 -0.012486484 -0.25676113 0.6270807
0.17576683 0.5790365 0.18352082 0.28070408 0.2657218 0.29700452 -0.18643504 -0.4085842
00000000: bff6 5dbd a64d c03d 61f0 b3be 9b62 50be
00000010: cb8f 463d cc1a e5be 3e29 aabe c803 ffbd
00000020: 7561 37bf 8085 9abe 787e 2e3e a20c 86be
00000030: 1f36 663d 500a 933d 815d ef3d f599 47bd
00000040: 183e cb3e cebf d0bd 3b04 b13e 147c 00bf
00000050: f527 b4be 4bdb 98bb 7886 35be ca57 e43c
00000060: 1181 093e 41e9 4f3e 27f3 b1be b52d 9bbe
00000070: 74f7 4a3f 8f8a 183e 7bff b5be ef8d e2bd
00000080: 275d 7e3e 161c 253e 92cc e5be 29a0 b93d
00000090: 4042 cfbe 28af 29be 9eb7 0dbe e064 e23e
000000a0: 6b60 823e f803 cebd 9adb 0ebf 0921 483f
000000b0: f9aa 5ebe 4190 5cbe dca0 f4be ce50 8cbf
000000c0: 541f 003f dd9b a53e a2e2 c3bc 4ced d2be
000000d0: 2040 f93c 1c94 4cbc 3276 83be 5c88 203f
000000e0: 38fc 333e bc3b 143f e2ec 3b3e 72b8 8f3e
000000f0: b00c 883e fa10 983e d4e8 3ebe f331 d1be

model.gnn.gnn_layers.1.gat_conv.bias f4 [64]
0.03316223 -0.009592593 0.006130236 -0.016500494 -0.04609073 0.017593503 -0.059039406 0.010669519
0.03316223 -0.009592593 0.006130236 -0.016500494 -0.04609073 0.017593503 -0.059039406 0.010669519
0.03316223 -0.009592593 0.006130236 -0.016500494 -0.04609073 0.017593503 -0.059039406 0.010669519
0.03316223 -0.009592593 0.006130236 -0.016500494 -0.04609073 0.017593503 -0.059039406 0.010669519
0.03316223 -0.009592593 0.006130236 -0.016500494 -0.04609073 0.017593503 -0.059039406 0.010669519
0.03316223 -0.009592593 0.006130236 -0.016500494 -0.04609073 0.017593503 -0.059039406 0.010669519
0.03316223 -0.009592593 0.006130236 -0.016500494 -0.04609073 0.017593503 -0.059039406 0.010669519
0.03316223 -0.009592593 0.006130236 -0.016500494 -0.04609073 0.017593503 -0.059039406 0.010669519
00000000: 1ed5 073d 402a 1dbc 26e0 c83b 0b2c 87bc
00000010: a2c9 3cbd 4020 903c 4ed3 71bd 35cf 2e3c
00000020: 1ed5 073d 402a 1dbc 26e0 c83b 0b2c 87bc
00000030: a2c9 3cbd 4020 903c 4ed3 71bd 35cf 2e3c
00000040: 1ed5 073d 402a 1dbc 26e0 c83b 0b2c 87bc
00000050: a2c9 3cbd 4020 903c 4ed3 71bd 35cf 2e3c
00000060: 1ed5 073d 402a 1dbc 26e0 c83b 0b2c 87bc
00000070: a2c9 3cbd 4020 903c 4ed3 71bd 35cf 2e3c
00000080: 1ed5 073d 402a 1dbc 26e0 c83b 0b2c 87bc
00000090: a2c9 3cbd 4020 903c 4ed3 71bd 35cf 2e3c
000000a0: 1ed5 073d 402a 1dbc 26e0 c83b 0b2c 87bc
000000b0: a2c9 3cbd 4020 903c 4ed3 71bd 35cf 2e3c
000000c0: 1ed5 073d 402a 1dbc 26e0 c83b 0b2c 87bc
000000d0: a2c9 3cbd 4020 903c 4ed3 71bd 35cf 2e3c
000000e0: 1ed5 073d 402a 1dbc 26e0 c83b 0b2c 87bc
000000f0: a2c9 3cbd 4020 903c 4ed3 71bd 35cf 2e3c

model.gnn.gnn_layers.1.gat_conv.fc.weight f4 [64, 64]
-0.018524528 -0.16345121 0.11862596 0.15176025 0.08900132 -0.009527107 0.20226273 0.01728051
-0.0693085 -0.048464525 -0.30527556 0.2634388 0.16015719 -0.20510301 0.02544432 0.071368225
-0.21014456 -0.084854886 0.13036281 0.23688826 0.43089497 0.08535122 0.08056796 0.032159723
0.081967525 -0.2021585 -0.032088865 0.057911824 0.155077 0.024833303 0.24783154 0.4508707
0.307915 -0.1504084 0.07915452 0.017991535 -0.27544415 -0.025932739 -0.064248115 0.13401023
0.11952178 -0.0038937647 0.033596955 0.18989156 0.4690642 -0.2109299 0.05607938 -0.04850964
0.3014975 -0.1287973 0.096344516 0.10005092 0.23352379 -0.08123731 -0.10671977 -0.06509846
-0.28303766 -0.028014353 0.27730063 0.12901703 0.21937758 0.117974244 -0.2342137 0.08467192
-0.22769137 0.29944056 -0.042412933 -0.18408063 0.02571115 -0.08362879 -0.12230938 0.026370756
-0.1584309 0.26145536 -0.06060151 -0.10022619 -0.036374055 0.19901577 0.02589292 0.01274322
-0.10232743 -0.07791321 0.16669105 -0.114547595 -0.02985784 0.21914566 0.43661383 -0.09284889
-0.4906219 0.08139498 0.12845683 0.107720256 -0.10994621 0.3777484 -0.17693569 -0.099462636
-0.1980344 -0.014745704 -0.1504803 -0.21903779 0.14251111 0.01624197 0.0028434168 0.101687774
-0.023966769 0.4371416 0.069507554 -0.024788542 0.0650507 -0.24840008 -0.29386604 0.35773516
0.012585114 0.048500303 -0.29822582 0.08787767 -0.0063921553 -0.03870293 0.07635 0.41856825
0.024667345 0.16280375 -0.084964596 -0.29445142 0.04366951 0.30116957 0.015894271 -0.06344968
-0.14759052 -0.19888319 0.28073996 0.038767 -0.16534297 -0.027114352 0.086136915 0.09691
0.3697321 -0.099269465 -0.11380053 -0.41135117 -0.25958514 0.05783366 0.57537377 0.18061505
-0.14677395 -0.13726206 0.0015567209 -0.006115528 0.023132587 0.14107102 0.2325967 0.2502556
-0.00827401 -0.10641144 -0.18252055 0.1345335 0.40616208 0.069084 -0.14966251 0.13161497
-0.32059586 -0.48512852 0.062968865 -0.21703364 -0.028587706 -0.16653273 0.2099957 -0.006692322
0.0057008495 -0.19808857 0.12091084 -0.1212884 -0.06735711 -0.23309131 0.08839809 -0.017364906
0.050985638 0.2392944 0.01265987 0.35591304 0.09755384 0.10232227 0.03198983 0.056273133
0.035709742 -0.2888731 -0.22522199 -0.2142607 -0.022635309 -0.23327711 -0.103654414 -0.3306181
-0.10785656 0.123770215 0.38064328 0.12892565 -0.12316713 -0.071622856 0.12254878 -0.05233595
0.4069643 0.13632663 0.18765402 0.1257301 -0.093248695 -0.021164317 -0.17005883 -0.2991135
0.08997387 -0.024548128 -0.41733804 0.4158095 0.21545 0.18319596 0.0637449 -0.11561264
-0.038060315 -0.13147521 0.07346591 -0.12687513 0.2327615 -0.1559185 -0.12832965 -0.072611324
-0.00080513087 0.35772708 -0.08810722 0.034748573 -0.052981023 -0.043821048 -0.08350884 0.033336133
-0.044901382 0.2645422 0.037404187 -0.2976168 -0.017863754 -0.32666788 0.11450361 -0.1154988
-0.07679993 -0.0046307957 -0.10918595 -0.13434651 -0.020100208 -0.0692429 -0.016743602 -0.118255876
-0.26148474 0.02289405 -0.12842374 0.114512354 -0.08280378 -0.12653461 0.077057935 0.012053839
00000000: c0c0 97bc c15f 27be 2bf2 f23d 0a67 1b3e
00000010: 5346 b63d 9517 1cbc f61d 4f3e db8f 8d3c
00000020: 9df1 8dbd bd82 46bd 144d 9cbe 73e1 863e
00000030: 3f00 243e 8606 52be 9b70 d03c 8129 923d
00000040: 2330 57be 66c8 adbd d47d 053e d692 723e
00000050: 449e dc3e 9fcc ae3d d100 a53d eab9 033d
00000060: 97de a73d a302 4fbe 9d6f 03bd f334 6d3d
00000070: 81cc 1e3e 366f cb3c 8dc7 7d3e 86d8 e63e
00000080: 09a7 9d3e a904 1abe c41b a23d fc62 933c
00000090: 0407 8dbe e570 d4bc 8494 83bd fa39 093e
000000a0: d6c7 f43d 882e 7fbb f69c 093d ef72 423e
000000b0: 2f29 f03e 02fe 57be 7eb3 653d 0bb2 46bd
000000c0: e15d 9a3e 70e3 03be 4650 c53d 7fe7 cc3d
000000d0: dc20 6f3e bf5f a6bd e58f dabd 5752 85bd
000000e0: 50ea 90be 5b7e e5bc 59fa 8d3e 0a1d 043e
000000f0: 84a4 603e 7b9c f13d b7d5 6fbe 7968 ad3d
00000100: ed27 69be 4650 993e 2fb9 2dbd a27f 3cbe
00000110: 31a0 d23c 9245 abbd 577d fabd 7c07 d83c
00000120: b63b 22be 7add 853e 4a39 78bd 6443 cdbd
00000130: f6fc 14bd caca 4b3e 641d d43c f0c8 503c
00000140: 0b91 d1bd f690 9fbd 0fb1 2a3e ee97 eabd
00000150: 6e98 f4bc b867 603e d98b df3e 8f27 bebd
00000160: cb32 fbbe 69b2 a63d 308a 033e 709c dc3d
00000170: 7b2b e1bd 3d68 c13e a12e 35be 11b3 cbbd
00000180: 88c9 4abe f797 71bc 8217 1abe 714b 60be
00000190: 6fee 113e e10d 853c 9e58 3a3b ae41 d03d
000001a0: f555 c4bc 06d1 df3e fa59 8e3d 5711 cbbc
000001b0: 4d39 853d 975c 7ebe 9c75 96be 1029 b73e
000001c0: cb31 4e3c 41a8 463d 0eb1 98be 35f9 b33d
000001d0: 4975 d1bb f786 1ebd 645d 9c3d 944e d63e
000001e0: 2c13 ca3c 07b6 263e eb01 aebd 56c2 96be
000001f0: cdde 323d e632 9a3e b434 823c e8f1 81bd
00000200: f821 17be 09a8 4bbe 26bd 8f3e 25ca 1e3d
00000210: ab4f 29be eb1e debc 8d68 b03d c078 c63d
00000220: 874d bd3e ca4d cbbd 4110 e9bd 9f9c d2be
00000230: 58e8 84be fde2 6c3d b24b 133f 27f3 383e
00000240: e94b 16be 6d8e 0cbe e30a cc3a c464 c8bb
00000250: 8d80 bd3c ec74 103e d42d 6e3e 8121 803e
00000260: b78f 07bc 3eee d9bd abe6 3abe 26c3 093e
00000270: 7af4 cf3e ea7b 8d3d 2141 19be 13c6 063e
00000280: 2425 a4be c462 f8be d2f5 803d 113e 5ebe
00000290: c430 eabc 8e87 2abe 1d09 573e 444b dbbb
000002a0: 31ce ba3b bbd7 4abe 1aa0 f73d 0d66 f8bd
000002b0: 86f2 89bd 7daf 6ebe 0f0a b53d d940 8ebc
000002c0: 51d6 503d 9709 753e 586b 4f3c 3c3a b63e
000002d0: 4fca c73d 578e d13d c507 033d a87e 663d
000002e0: 6144 123d 2de7 93be 98a0 66be 2867 5bbe
000002f0: af6d b9bc 32e0 6ebe c448 d4bd c746 a9be
00000300: e6e3 dcbd 3d7b fd3d ade3 c23e 1605 043e
00000310: 0c3f fcbd 01af 92bd dbfa fa3d 395e 56bd
00000320: a05d d03e 3599 0b3e 6028 403e 64bf 003e
00000330: 2cf9 bebd ca60 adbc e723 2ebe 6825 99be
00000340: 3844 b83d 2819 c9bc 55ad d5be fce4 d43e
00000350: ed9e 5c3e b997 3b3e b08c 823d 52c6 ecbd
00000360: 22e5 1bbd 70a1 06be 4c75 963d 8eeb 01be
00000370: 0859 6e3e 19a9 1fbe d968 03be 3fb5 94bd
00000380: 6b0f 53ba 0128 b73e 8f71 b4bd 8554 0e3d
00000390: a102 59bd b37d 33bd af06 abbd 788b 083d
000003a0: 83ea 37bd 1372 873e 2235 193d 3b61 98be
000003b0: 0257 92bc 0341 a7be de80 ea3d a38a ecbd
000003c0: 4849 9dbd eebd 97bb e29c dfbd 2292 09be
000003d0: 31a9 a4bc 39cf 8dbd e129 89bc 2330 f2bd
000003e0: 54e1 85be 4e8c bb3c 8381 03be 7485 ea3d
000003f0: 0795 a9bd 4a92 01be 8dd0 9d3d 777d 453c

model.readout.weight_and_sum.atom_weighting.0.weight f4 [1, 8]
-0.34609815 0.30294317 0.04875581 0.14587349 -0.18346246 0.058076974 0.066849336 -0.26294383
00000000: c733 b1be 5e1b 9b3e 2cb4 473d dc5f 153e
00000010: 95dd 3bbe 1fe2 6d3d 4ee8 883d 93a0 86be

model.predict.predict.1.weight f4 [128, 16]
0.07286031 0.08201199 0.24584779 -0.11921713 -0.20011348 0.03253182 0.02774739 0.30425802
-0.24011004 0.06618968 -0.27384248 0.07990962 0.15026242 -0.29030243 0.022987794 -0.1605599
0.024056753 0.24622852 -0.11943762 0.13645335 -0.247921 0.17623335 0.10729277 0.06340335
-0.08605888 0.05070754 -0.30885953 0.08506602 -0.23881088 -0.086288184 -0.017344467 0.16269161
-0.16090138 -0.111504056 -0.13010718 -0.28952187 -0.25455168 -0.02710229 0.037316184 0.22604321
0.20188233 -0.30270082 0.29291776 0.019318093 -0.1533318 -0.24207209 -0.021778679 0.24836925
0.045056872 0.17327131 0.14831768 0.25588718 0.03118304 0.29392207 -0.16028109 -0.16289233
0.27217305 0.20783374 -0.04822943 0.22507264 -0.0075735943 -0.2142339 0.30865338 -0.099042945
0.08842604 0.21542782 0.22021303 0.17545134 -0.088852376 0.023018956 -0.22288837 0.04473774
-0.18133116 0.1901861 0.2624372 0.2233149 0.07460723 -0.014360296 -0.1537515 -0.1073473
-0.14567238 0.07596153 -0.20432785 0.17360431 -0.10844595 0.12461602 0.2550019 0.09190436
-0.027583163 -0.09230838 -0.055607636 -0.018613145 -0.18159868 0.091497794 -0.08489149 -0.09908582
0.15500912 0.18158615 -0.020620806 0.1946424 -0.18176663 0.051584195 -0.13859785 -0.103277735
-0.113362834 0.16439234 -0.2461822 -0.18411031 -0.027151274 0.16708234 0.16232759 -0.14725694
-0.11529167 -0.094443545 -0.09315591 0.22506215 -0.25513455 -0.057053335 0.08511889 -0.030815233
-0.09732353 0.3408366 -0.18337788 0.18770207 0.12970154 -0.13895342 0.038910728 0.13407177
-0.16498724 -0.22268938 -0.021196077 0.108694844 0.16983497 0.121880196 0.10606609 -0.13856152
-0.16899653 0.110920705 -0.044080008 0.06866794 0.1635379 0.19153625 -0.05373716 -0.09261657
-0.124555096 0.19666788 -0.22055015 -0.136917 0.0016287408 -0.12204045 0.17318149 0.017720703
0.05749832 0.008758828 0.21253787 -0.18144079 -0.083574235 0.026590582 -0.066493295 -0.08165715
0.26571968 -0.0761082 0.063398495 0.085499264 -0.24009512 -0.042630125 0.21800089 -0.12428436
0.046430737 0.20570347 0.1654972 0.014560729 -0.27165142 -0.061296042 -0.20412284 -0.18435259
-0.16183163 -0.2619667 0.15785773 -0.15889573 0.110964015 -0.015440881 0.12948523 0.29039097
-0.19801524 -0.047704164 0.14864881 -0.1907397 -0.30044743 -0.14508513 0.12449941 0.16652577
-0.11378089 -0.04811703 0.22758456 -0.21980785 0.23635368 0.19221924 -0.19470319 0.16543616
-0.07857372 0.067704216 0.20074147 -0.08704317 -0.21688713 -0.17539927 0.08877924 0.11551864
0.030054253 -0.11468961 -0.007988491 -0.16742055 -0.1750657 -0.075474836 -0.19342801 0.2851916
0.12997903 0.12244672 -0.08235961 0.10707595 0.13022192 0.057812262 0.0067259283 0.11319813
-0.06902903 0.028137675 0.05729135 -0.25142235 0.078576185 -0.25214186 0.08886809 0.0050742356
-0.009286882 0.35218018 -0.1438503 -0.035182726 -0.22514704 -0.019757226 -0.101582654 0.0979458
0.2718763 0.24343097 0.033853866 -0.028251935 -0.23799478 -0.11722406 0.18208621 -0.09858581
-0.09538258 0.31330207 0.065107405 0.14716136 0.048128508 0.1585514 0.19796339 0.18981902
00000000: c937 953d e7f5 a73d 86bf 7b3e 1c28 f4bd
00000010: 8cea 4cbe 1640 053d 7f4e e33c b5c7 9b3e
00000020: 68df 75be 748e 873d 1535 8cbe a8a7 a33d
00000030: 64de 193e 85a2 94be e650 bc3c d069 24be
00000040: ab12 c53c 5423 7c3e b69b f4bd 6dba 0b3e
00000050: 01df 7dbe 8476 343e 50bc db3d 9ed9 813d
00000060: a33f b0bd b6b2 4f3d d622 9ebe 1837 ae3d
00000070: d78a 74be dcb7 b0bd fc15 8ebc a198 263e
00000080: 55c3 24be 3d5c e4bd d13a 05be 363c 94be
00000090: 9954 82be 9f05 debc dbd8 183d df77 673e
000000a0: 3eba 4e3e 9afb 9abe 51f9 953e fa40 9e3c
000000b0: 0303 1dbe bfe1 77be 3369 b2bc 8254 7e3e
000000c0: 8e8d 383d 096e 313e 97e0 173e a503 833e
000000d0: 9373 ff3c f47c 963e ba20 24be 3fcd 26be
000000e0: 445a 8b3e 5ed2 543e 398c 45bd 7179 663e
000000f0: ea2b f8bb 2260 5bbe d107 9e3e 07d7 cabd
00000100: b618 b53d 1c99 5c3e 867f 613e 84a9 333e
00000110: 3cf8 b5bd 4092 bc3c d93c 64be ec3e 373d
00000120: e0ae 39be 25c0 423e 2b5e 863e a9ac 643e
00000130: adcb 983d 7247 6bbc 0971 1dbe e7d8 dbbd
00000140: 242b 15be b891 9b3d 523b 51be 54c5 313e
00000150: e918 debd af36 ff3d 9c8f 823e 5a38 bc3d
00000160: 16f6 e1bc 2d0c bdbd d5c4 63bd 987a 98bc
00000170: 01f5 39be 3263 bb3d 97db adbd 82ed cabd
00000180: b6ba 1e3e b8f1 393e f7ec a8bc 5650 473e
00000190: 0821 3abe f349 533d 98ec 0dbe 4783 d3bd
000001a0: c62a e8bd 7756 283e 3017 7cbe 6a87 3cbe
000001b0: 596c debc a217 2b3e 3439 263e 86ca 16be
000001c0: 0a1e ecbd 9e6b c1bd 87c8 bebd b176 663e
000001d0: ffa0 82be c2b0 69bd d052 ae3d 3a70 fcbc
000001e0: 8f51 c7bd 2382 ae3e 69c7 3bbe f934 403e
000001f0: 7bd0 043e ce49 0ebe db60 1f3d 1c4a 093e
00000200: 6af2 28be af08 64be 65a3 adbc 679b de3d
00000210: 38e9 2d3e 539c f93d 2e39 d93d 12e3 0dbe
00000220: 6d0d 2dbe 652a e33d 3d8d 34bd c7a1 8c3d
00000230: 7b76 273e 1422 443e 7f1b 5cbd c2ad bdbd
00000240: be16 ffbd 4e63 493e e6d7 61be f833 0cbe
00000250: 797b d53a 58f0 f9bd 7d56 313e 022b 913c
00000260: 5c83 6b3d 3081 0f3c 87a3 593e 9dcb 39be
00000270: f828 abbd 7ed4 d93c a32d 88bd dd3b a7bd
00000280: 690c 883e 9ede 9bbd 12d7 813d 3d1a af3d
00000290: 7fdb 75be ed9c 2ebd a03b 5f3e cc88 febd
000002a0: 282e 3e3d eea3 523e 1978 293e 2090 6e3c
000002b0: e515 8bbe 8f11 7bbd 9405 51be edc6 3cbe
000002c0: 31b7 25be 8020 86be 75a5 213e 90b5 22be
000002d0: 1a41 e33d c0fb 7cbc c797 043e 20ae 943e
000002e0: 82c4 4abe 7165 43bd 6537 183e 4551 43be
000002f0: 3fd4 99be 3291 14be 8cf9 fe3d bb85 2a3e
00000300: f505 e9bd 5d16 45bd ed0b 693e 4f15 61be
00000310: b306 723e 1fd5 443e 4660 47be 1968 293e
00000320: 42eb a0bd 82a8 8a3d 2c8f 4d3e b143 b2bd
00000330: a917 5ebe de9b 33be e4d1 b53d 0995 ec3d
00000340: 5634 f63c 63e2 eabd 29e2 02bc 4b70 2bbe
00000350: 6c44 33be 8d92 9abd fe11 46be a204 923e
00000360: 3919 053e 59c5 fa3d 28ac a8bd a34a db3d
00000370: e558 053e 8dcc 6c3d 2d65 dc3b 6cd4 e73d
00000380: 185f 8dbd fb80 e63c 56aa 6a3d 6eba 80be
00000390: 8dec a03d bd18 81be 7900 b63d c645 a63b
000003a0: 0228 18bc f650 b43e 7e4d 13be c31b 10bd
000003b0: f28c 66be e8d9 a1bc 910a d0bd cf97 c83d
000003c0: 5f33 8b3e f845 793e 5aaa 0a3d 9a70 e7bc
000003d0: e7b4 73be 2b13 f0bd cf74 3a3e 5be7 c9bd
000003e0: f157 c3bd 2169 a03e 0857 853d 78b1 163e
000003f0: 6622 453d 4c5b 223e eab6 4a3e eb5f 423e

model.predict.predict.1.bias f4 [128]
-0.17036131 0.3002972 0.13374333 -0.15874839 -0.43473312 -0.28427532 -0.024915693 0.13659297
0.1901098 -0.18875006 0.06897977 -0.0062583666 0.087640174 0.078597605 0.10747938 -0.005868338
0.10454979 -0.16382451 -0.1483746 -0.2832916 0.061727826 0.05190558 0.070926 0.21245171
-0.16126214 0.051553622 -0.09141333 -0.041968912 0.094095424 -0.033235952 0.14939256 0.24366464
-0.13086277 0.2080455 0.13505358 -0.043968957 0.16034822 0.15707067 -0.255637 -0.007627529
-0.1408703 0.14867085 -0.24631251 -0.22342776 0.21255977 -0.17929874 0.20078246 0.16414377
0.18080248 -0.20767294 0.11107767 -0.11629011 0.04479792 0.28318608 -0.17349337 -0.21013826
-0.062541954 -0.19533636 0.104860365 -0.019277524 0.24627323 -0.23826787 0.0348976 0.056002896
0.16422202 0.031600483 0.35544994 -0.27899262 0.26410395 0.060549065 0.085547686 -0.04978696
0.04306936 0.0469717 -0.13543779 -0.08575211 0.17124102 0.22473541 -0.25540394 -0.17576629
-0.2909217 0.11912587 0.034896236 -0.11662433 -0.17454626 0.37392595 -0.05456554 0.1523625
0.09369662 0.002853791 -0.09706748 0.25933987 -0.12546106 0.036860265 0.23410763 0.011221916
0.0074708336 0.14852943 -0.2229441 -0.052263178 -0.19261272 0.23951043 -0.035271328 0.19747409
-0.1900108 -0.11560221 -0.1734655 0.049048696 -0.14520606 0.15852924 0.09788615 0.12391195
0.24601988 0.231177 -0.124342576 -0.2695298 -0.06150294 -0.15825166 -0.0885601 0.16265853
0.16078983 -0.25310615 -0.25250417 0.3253994 0.15753195 0.18203478 -0.08817707 -0.15606597
00000000: 3273 2ebe 8ec0 993e 03f4 083e f08e 22be
00000010: 5795 debe 898c 91be ff1b ccbc 07df 0b3e
00000020: 25ac 423e b247 41be 4445 8d3d fc12 cdbb
00000030: b17c b33d c8f7 a03d 261e dc3d 304b c0bb
00000040: 331e d63d 9dc1 27be 83ef 17be 990b 91be
00000050: 51d6 7c3d f29a 543d a741 913d f18c 593e
00000060: e721 25be e429 533d e936 bbbd 98e7 2bbd
00000070: 1ab5 c03d 6c22 08bd 5dfa 183e 3983 793e
00000080: e400 06be e109 553e 7c4b 0a3e cb18 34bd
00000090: 5332 243e 22d7 203e dae2 82be 5af0 f9bb
000000a0: 4e40 10be 2c3d 183e 5939 7cbe 3fca 64be
000000b0: 45a9 593e 179a 37be eb99 4d3e 4e15 283e
000000c0: 4924 393e 37a8 54be b07c e33d 8229 eebd
000000d0: 067e 373d c4fd 903e 3fa8 31be 7c2e 57be
000000e0: ff15 80bd 4106 48be 08c1 d63d e6eb 9dbc
000000f0: 0d2f 7c3e 7efc 73be c9f0 0e3d 4b63 653d
00000100: d129 283e 826f 013d 89fd b53e 1fd8 8ebe
00000110: a238 873e 4c02 783d a033 af3d 69ed 4bbd
00000120: 7f69 303d 6665 403d 34b0 0abe cd9e afbd
00000130: ce59 2f3e 0a21 663e 4ec4 82be 14fc 33be
00000140: b0f3 94be 44f8 f33d 5bef 0e3d bdd8 eebd
00000150: 41bc 32be 3973 bf3e 1e80 5fbd ea04 1c3e
00000160: 03e4 bf3d ab06 3b3b 51cb c6bd 32c8 843e
00000170: dd78 00be cafa 163d e9b9 6f3e 21dc 373c
00000180: e5cd f43b 1918 183e 754b 64be ea11 56bd
00000190: 453c 45be 3942 753e ab78 10bd a636 4a3e
000001a0: 3192 42be dac0 ecbd f1a0 31be 49e7 483d
000001b0: e6b0 14be 7d55 223e 8978 c83d 8cc5 fd3d
000001c0: a3ec 7b3e aab9 6c3e 52a7 febd cfff 89be
000001d0: 82ea 7bbd b90c 22be ff5e b5bd f58f 263e
000001e0: 17a6 243e 2197 81be 3a48 81be c09a a63e
000001f0: 0e50 213e 5367 3a3e 2e96 b4bd c2cf 1fbe

model.predict.predict.3.weight f4 [128]
0.9316006 0.9018682 0.93947566 0.89106035 0.9474176 0.8195361 0.92808926 0.8692316
0.8391058 0.9997235 0.99069446 0.92541474 0.96366835 1.0047398 0.9638727 0.99644125
0.999376 0.9385278 0.8599395 0.98163193 0.93925774 0.95814633 0.9523856 0.9784189
0.75522614 0.91988385 0.9448541 1.0028836 0.95051575 0.7657003 0.96541375 0.9349214
0.8594523 0.90302485 0.9946463 0.96463656 0.93216085 0.97671664 0.9813138 0.94803065
0.9115734 0.9497871 0.92188275 0.967489 0.9648456 0.9649852 0.8709717 0.9548181
0.9718009 0.98729765 0.91926295 0.93365544 0.92264664 0.99011946 0.8848069 0.9442314
0.92718226 0.98246616 0.9400481 0.94026816 0.94892 0.9436528 0.77249986 0.9445375
0.8556272 0.956687 0.9328715 0.94764924 0.87054336 0.95948344 0.8261953 0.95274264
0.9282188 0.94964886 0.81498444 0.9499656 0.94278526 0.9337231 0.921554 0.9531481
0.9999127 0.89256626 0.94166154 0.87411004 0.8438989 0.97615147 0.9637407 1.0046631
0.892332 0.92269343 0.90298605 0.9183127 0.9543797 0.96415836 0.91784865 0.91419953
0.94232345 0.9533343 0.9547653 0.97237575 0.9062164 0.8826177 0.918425 0.9804979
0.9266245 0.93384606 0.94936955 0.9676928 0.8601543 0.9873567 0.9961202 0.9739108
0.9528516 0.9557703 0.928544 0.91931784 0.9354972 0.9217868 0.9841991 0.88949174
0.88222235 0.92541593 0.95280284 0.8865373 0.9704967 0.9148006 0.94688165 0.89446616
00000000: 607d 6e3f d6e0 663f 7a81 703f 881c 643f
00000010: f689 723f 1ecd 513f 4297 6d3f f685 5e3f
00000020: a3cf 563f e1ed 7f3f 279e 7d3f fbe7 6c3f
00000030: f8b2 763f 509b 803f 5cc0 763f c616 7f3f
00000040: 1bd7 7f3f 5c43 703f ff24 5c3f 3b4c 7b3f
00000050: 3273 703f 1449 753f 8bcf 733f a979 7a3f
00000060: 8056 413f 827d 6b3f f5e1 713f 7d5e 803f
00000070: 0055 733f ef04 443f 5b25 773f 0257 6f3f
00000080: 1105 5c3f a32c 673f 24a1 7e3f 6cf2 763f
00000090: 18a2 6e3f 1a0a 7a3f 6237 7b3f 23b2 723f
000000a0: e05c 693f 3f25 733f 8200 6c3f 5cad 773f
000000b0: 1f00 773f 4509 773f 00f8 5e3f f66e 743f
000000c0: f2c7 783f 8abf 7c3f d154 6b3f 0b04 6f3f
000000d0: 9232 6c3f 7878 7d3f b482 623f 26b9 713f
000000e0: d15b 6d3f e782 7b3f fea6 703f 6ab5 703f
000000f0: 6cec 723f 3b93 713f 8dc2 453f 36cd 713f
00000100: 620a 5b3f 70e9 743f abd0 6e3f 2499 723f
00000110: eedb 5e3f b5a0 753f 8981 533f f1e6 733f
00000120: bf9f 6d3f 301c 733f d2a2 503f f230 733f
00000130: 605a 713f 7a08 6f3f f7ea 6b3f 8401 743f
00000140: 47fa 7f3f 397f 643f bb10 713f adc5 5f3f
00000150: c209 583f 10e5 793f b6b7 763f cd98 803f
00000160: df6f 643f a335 6c3f 182a 673f 8b16 6b3f
00000170: 3a52 743f 15d3 763f 21f8 6a3f fb08 6a3f
00000180: 1c3c 713f b70d 743f 806b 743f 9eed 783f
00000190: ccfd 673f 3cf3 613f e71d 6b3f e901 7b3f
000001a0: 4337 6d3f 8910 6f3f e209 733f b7ba 773f
000001b0: 1233 5c3f 69c3 7c3f bc01 7f3f 3852 793f
000001c0: 15ee 733f 5dad 743f 0fb5 6d3f 6a58 6b3f
000001d0: bf7c 6f3f 38fa 6b3f 79f4 7b3f bbb5 633f
000001e0: 53d9 613f 0fe8 6c3f e3ea 733f 1cf4 623f
000001f0: 7972 783f 5f30 6a3f d666 723f bcfb 643f

model.predict.predict.3.bias f4 [128]
0.24106361 0.17489374 0.22249058 0.16792732 -0.16951708 -0.14940313 0.16600439 0.20111965
-0.20467298 -0.2010758 -0.16655076 -0.19588389 0.17866261 -0.17189655 -0.19663046 -0.19267751
-0.16879116 -0.17065397 -0.15223365 -0.24109912 0.16235304 0.16680476 -0.18810333 -0.20794024
0.18799582 -0.18989007 -0.20429043 -0.18190995 0.16438581 -0.14578295 -0.20099247 0.24554652
-0.17121768 0.17503954 -0.21556383 -0.18065538 -0.16998959 -0.17639555 -0.1655623 0.16867001
0.16504604 -0.17449012 0.18515778 0.1814363 -0.18995449 -0.1652723 0.17601924 0.19408095
-0.1776629 -0.18766157 0.16606243 0.16913155 0.20112646 -0.21131785 0.18391137 0.2038604
-0.18650904 -0.21376424 0.20954025 0.16253483 0.18992275 0.16255833 0.15138024 0.16941603
0.19449309 0.22163323 0.20096101 -0.16521473 -0.16766065 0.22866644 0.14869803 -0.18934485
0.20013316 0.17719208 0.18870726 -0.20547055 0.1956491 0.1640655 -0.16357456 0.16635144
-0.19534509 0.15769821 -0.22925691 0.21272942 0.17119105 -0.16551784 -0.18070571 -0.16693765
0.19149643 0.18584271 0.1616007 0.18271868 0.16566765 -0.17508945 -0.1728511 -0.16899909
0.1778092 0.16331527 0.20209256 -0.17522325 0.16419256 0.18889283 0.16189767 -0.20002393
-0.2196655 -0.16482608 -0.20737523 -0.17988092 0.20638119 -0.18150602 -0.16967565 -0.19210036
0.17175351 -0.17213996 0.18353625 0.17117871 0.16930898 0.16172613 -0.16683018 0.23335801
0.22039604 0.23056309 0.17838424 -0.15936069 0.16283159 -0.21192445 0.17745577 0.19603398
00000000: 61d9 763e 5817 333e 92d4 633e 24f5 2b3e
00000010: e395 2dbe 22fd 18be 0efd 293e 4ff2 4d3e
00000020: cb95 51be d1e6 4dbe 488c 2abe c995 48be
00000030: 55f3 363e a605 30be 7f59 49be 414d 45be
00000040: 97d7 2cbe eabf 2ebe 23e3 1bbe b0e2 76be
00000050: e03f 263e dece 2a3e 299e 40be 49ee 54be
00000060: fa81 403e 8b72 42be 8331 51be 9a46 3abe
00000070: c154 283e 2048 15be f8d0 4dbe 8c70 7b3e
00000080: b053 2fbe 913d 333e c4bc 5cbe b9fd 38be
00000090: c011 2ebe 09a1 34be 2a89 29be d5b7 2c3e
000000a0: d401 293e 8aad 32be 009a 3d3e 70ca 393e
000000b0: 6e83 42be 243d 29be 633e 343e 28bd 463e
000000c0: 43ed 35be 5b2a 40be 450c 2a3e d230 2d3e
000000d0: 18f4 4d3e b563 58be 4353 3c3e c8c0 503e
000000e0: 3afc 3ebe 03e5 5abe b891 563e 886f 263e
000000f0: 1c7b 423e b175 263e 6c03 1b3e 657b 2d3e
00000100: 3229 473e d2f3 623e b9c8 4d3e 0d2e 29be
00000110: 3caf 2bbe 8927 6a3e 4c44 183e 9ee3 41be
00000120: b5ef 4c3e d771 353e 7a3c 413e df66 52be
00000130: 3d58 483e c900 283e 1780 27be 0858 2a3e
00000140: 8b08 48be a47b 213e 53c2 6abe bed5 593e
00000150: b54c 2f3e 827d 29be eb0a 39be b4f1 2abe
00000160: a417 443e 8d4d 3e3e a77a 253e 9b1a 3b3e
00000170: c8a4 293e a64a 33be e1ff 30be 190e 2dbe
00000180: 9d13 363e 1e3c 273e 5af1 4e3e b96d 33be
00000190: 1822 283e 1f6d 413e 81c8 253e 13d3 4cbe
000001a0: feef 60be 2bc8 28be 2c5a 54be b432 38be
000001b0: 9755 533e b7dc 39be 74bf 2dbe f5b5 44be
000001c0: 27e0 2f3e 7545 30be edf0 3b3e 7949 2f3e
000001d0: 555f 2d3e 899b 253e 88d5 2abe 67f5 6e3e
000001e0: 80af 613e bb18 6c3e 5caa 363e 732f 23be
000001f0: 53bd 263e b902 59be f7b6 353e 22bd 483e

model.predict.predict.3.running_mean f4 [128]
0.7180074 0.44685 1.3934999 0.32962823 0.5687035 5.194436e-05 0.9701272 0.3340042
0.00052225764 6e-45 1.8802952 0.51883155 0.59461683 2.4263244 0.18367636 1.5815618
1.8414284 1.3035179 5.7664805e-24 0.5183509 1.1023115 0.23660071 6e-45 3.3492386
0.05671366 0.8554437 0.43962604 2.5594046 1.2519565 5.978645e-05 0.44742098 0.98214334
0.006605704 2.108043 0.81954885 0.97410446 0.35861444 1.3770871 1.4162786 0.38374534
0.2322292 6e-45 6e-45 6e-45 0.8127133 6e-45 0.34994274 3.0085993
0.4294732 0.96445954 1.0276829 0.5074315 1.0031382 0.8966001 1.1672981e-24 0.47183284
0.38526848 6e-45 0.61217463 1.6707022 1.0155938 0.9001424 0.005771079 1.556383
0.2832057 0.42915675 0.26257098 0.3994355 0.11011905 2.1728113 0.01923662 0.35507572
0.33112273 1.1999011 0.00200982 6e-45 1.2520832 1.8625154 0.1541707 1.5016978
0.6282594 6.162442e-21 0.5541932 6e-45 0.2730445 1.0792066 0.72310024 3.3721988
0.22435945 2.2065485 1.4204489 1.4900224 1.0632434 2.2658002 0.49486265 6e-45
6e-45 2.0672448 1.3004614 0.6037282 0.78822845 0.26388475 0.5125335 2.7864287
6e-45 0.345188 1.0480108 0.6717759 1.284491e-22 0.78227735 0.5829193 2.9943507
1.1526408 0.8777699 1.7920797 9.7159727e-26 0.6062492 1.6711636 1.0500748 0.53930044
0.2762834 1.355245 6e-45 0.14715694 1.3088391 0.1336987 1.9952368 6e-45
00000000: 55cf 373f 86c9 e43e 345e b23f 08c5 a83e
00000010: 8d96 113f d5de 5938 425a 783f 9902 ab3e
00000020: 1ee8 083a 0400 0000 83ad f03f 25d2 043f
00000030: cf38 183f e648 1b40 a815 3c3e 9e70 ca3f
00000040: edb3 eb3f add9 a63f 7514 df18 a5b2 043f
00000050: 8b18 8d3f 7547 723e 0400 0000 ed59 5640
00000060: 954c 683d 5cfe 5a3f aa16 e13e 49cd 2340
00000070: 1c40 a03f 36c3 7a38 5d14 e53e bf6d 7b3f
00000080: a974 d83b 2dea 0640 f4cd 513f e95e 793f
00000090: 509c b73e 6444 b03f 9e48 b53f 457a c43e
000000a0: 7ecd 6d3e 0400 0000 0400 0000 0400 0000
000000b0: fb0d 503f 0400 0000 b22b b33e e48c 4040
000000c0: e9e3 db3e d2e6 763f 1d8b 833f 08e7 013f
000000d0: d566 803f 9687 653f 71a1 b417 1394 f13e
000000e0: e941 c53e 0400 0000 7ab7 1c3f 92d9 d53f
000000f0: fafe 813f bb6f 663f 521b bd3b 8f37 c73f
00000100: 5600 913e 6fba db3e b46f 863e cf82 cc3e
00000110: 1986 e13d 570f 0b40 1e96 9d3c 7ccc b53e
00000120: eb88 a93e 5c96 993f 2fb7 033b 0400 0000
00000130: 4344 a03f e866 ee3f edde 1d3e a237 c03f
00000140: 9cd5 203f 7bcf e81d 9bdf 0d3f 0400 0000
00000150: 7dcc 8b3e 7123 8a3f 191d 393f 1bd2 5740
00000160: 7cbe 653e 1738 0d40 45d1 b53f 0eb9 be3f
00000170: 5c18 883f df02 1140 a35e fd3e 0400 0000
00000180: 0400 0000 bd4d 0440 8575 a63f ee8d 1a3f
00000190: 57c9 493f e71b 873e 6535 033f d954 3240
000001a0: 0400 0000 7bbc b03e 3825 863f 81f9 2b3f
000001b0: 1249 1b1b 5443 483f 333a 153f 71a3 3f40
000001c0: bc89 933f 87b5 603f de62 e53f 4b8e f015
000001d0: 2633 1b3f b0e8 d53f da68 863f 980f 0a3f
000001e0: 0575 8d3e ab78 ad3f 0400 0000 4fb0 163e
000001f0: 0a88 a73f 50e8 083e eb63 ff3f 0400 0000

model.predict.predict.3.running_var f4 [128]
1.3613573 0.3090561 1.542838 0.30822018 0.5212186 2.2020391e-05 1.6273531 0.25089344
0.00012723435 6e-45 3.354455 1.1086226 1.1469296 2.5229533 0.13914065 2.2787073
3.09376 1.2023327 3.3076948e-25 0.7224379 1.3144968 0.19799322 6e-45 3.406417
0.03913005 0.7612859 0.6593762 3.1260927 1.6618601 2.1316782e-05 0.676524 0.84741795
0.0036503691 1.3004544 0.38657928 2.5348198 0.19412929 1.521756 1.7047927 0.5212361
0.288038 6e-45 6e-45 6e-45 1.0118335 6e-45 0.35179648 3.0146346
0.6978155 1.1159661 0.94389194 0.66697544 1.5119532 0.6013784 4.8006306e-26 0.6576109
0.21355733 6e-45 1.1906796 1.2225986 1.5377074 1.3338481 0.001075697 2.2274563
0.18670857 0.6989498 0.17607397 0.21955103 0.03797451 3.0427067 0.006966813 0.21179253
0.40265104 1.5100139 0.0014237792 6e-45 0.6920306 1.4421886 0.19853836 2.0145206
0.67690444 7.43008e-23 0.26579824 6e-45 0.23492019 0.6679738 0.49706265 3.4987977
0.12945591 1.4998965 0.9683614 1.2242862 0.73433685 1.8066152 0.5197304 6e-45
6e-45 3.1075885 3.0372796 0.65997565 0.4821354 0.11246098 0.30366427 3.3449283
6e-45 0.51229066 1.3246633 0.95109135 7.488671e-24 0.9875332 0.55085653 3.499889
1.6831939 0.9411629 2.229359 4.6328245e-27 0.6553023 1.8920261 1.0520765 0.43089467
0.0677448 1.038829 6e-45 0.04766613 1.188351 0.075611226 3.208795 6e-45
00000000: f540 ae3f 9a3c 9e3e b77b c53f 09cf 9d3e
00000010: 956e 053f 6eb8 b837 1b4d d03f 1b75 803e
00000020: 366a 0539 0400 0000 64af 5640 58e7 8d3f
00000030: 97ce 923f 1178 2140 e37a 0e3e 57d6 1140
00000040: 2a00 4640 0ae6 993f 84bc cc16 b1f1 383f
00000050: 6e41 a83f bcbe 4a3e 0400 0000 bc02 5a40
00000060: d546 203d a2e3 423f e1cc 283f e711 4840
00000070: d5b7 d43f 71d1 b237 ad30 2d3f 62f0 583f
00000080: 083b 6f3b 4a75 a63f b8ed c53e 7d3a 2240
00000090: d4c9 463e e7c8 c23f a636 da3f bb6f 053f
000000a0: b779 933e 0400 0000 0400 0000 0400 0000
000000b0: c383 813f 0400 0000 ab1e b43e c6ef 4040
000000c0: 09a4 323f fad7 8e3f e7a2 713f e7be 2a3f
000000d0: af87 c13f eff3 193f 39b7 6d15 3059 283f
000000e0: c6ae 5a3e 0400 0000 3068 983f 1c7e 9c3f
000000f0: 99d3 c43f 89bb aa3f 67fe 8c3a a58e 0e40
00000100: 8830 3f3e 60ee 323f bc4c 343e fcd1 603e
00000110: 298b 1b3d b5bb 4240 dd49 e43b 24e0 583e
00000120: 4728 ce3e 2348 c13f 1a9e ba3a 0400 0000
00000130: eb28 313f a399 b83f a44d 4b3e e8ed 0040
00000140: 9c49 2d3f f8a5 b31a b516 883e 0400 0000
00000150: eb8e 703e 5500 2b3f ff7e fe3e 4dec 5f40
00000160: 1790 043e 9cfc bf3f 88e6 773f 69b5 9c3f
00000170: 80fd 3b3f 2b3f e73f 0d0d 053f 0400 0000
00000180: 0400 0000 bbe2 4640 ca62 4240 2af4 283f
00000190: 73da f63e f151 e63d e279 9b3e 4e13 5640
000001a0: 0400 0000 7b25 033f 918e a93f b97a 733f
000001b0: 1ada 1019 face 7c3f ef04 0d3f 2efe 5f40
000001c0: e672 d73f 0df0 703f d1ad 0e40 6c86 b713
000001d0: e4c1 273f e92d f23f 71aa 863f 3a9e dc3e
000001e0: c9bd 8a3d 59f8 843f 0400 0000 8f3d 433d
000001f0: e31b 983f 0fda 9a3d e65c 4d40 0400 0000
